#loc = loc("results/my_experiment/torchinductor_cache_0/op/copyq2b4jap6aqjvbv7exwa7tholimoxttv2t4zt72kddw6ybshd.py":18:0)
#loc1 = loc(unknown)
#loc17 = loc("results/my_experiment/torchinductor_cache_0/op/copyq2b4jap6aqjvbv7exwa7tholimoxttv2t4zt72kddw6ybshd.py":40:24)
#loc26 = loc(callsite(#loc1 at #loc17))
module {
  tt.func public @triton_per_fused__to_copy_mean_pow_10(%arg0: !tt.ptr<bf16> {tt.divisibility = 16 : i32} loc("results/my_experiment/torchinductor_cache_0/op/copyq2b4jap6aqjvbv7exwa7tholimoxttv2t4zt72kddw6ybshd.py":18:0), %arg1: !tt.ptr<f32> {tt.divisibility = 16 : i32} loc("results/my_experiment/torchinductor_cache_0/op/copyq2b4jap6aqjvbv7exwa7tholimoxttv2t4zt72kddw6ybshd.py":18:0), %arg2: i32 {tt.divisibility = 16 : i32} loc("results/my_experiment/torchinductor_cache_0/op/copyq2b4jap6aqjvbv7exwa7tholimoxttv2t4zt72kddw6ybshd.py":18:0), %arg3: i32 {tt.divisibility = 16 : i32} loc("results/my_experiment/torchinductor_cache_0/op/copyq2b4jap6aqjvbv7exwa7tholimoxttv2t4zt72kddw6ybshd.py":18:0)) attributes {noinline = false} {
    %c2304_i32 = arith.constant 2304 : i32 loc(#loc1)
    %c64_i32 = arith.constant 64 : i32 loc(#loc1)
    %c12_i32 = arith.constant 12 : i32 loc(#loc1)
    %cst = arith.constant dense<768> : tensor<1x64xi32> loc(#loc1)
    %0 = tt.get_program_id x : i32 loc(#loc2)
    %1 = tt.make_range {end = 64 : i32, start = 0 : i32} : tensor<64xi32> loc(#loc3)
    %2 = tt.expand_dims %1 {axis = 0 : i32} : tensor<64xi32> -> tensor<1x64xi32> loc(#loc4)
    %3 = arith.remsi %0, %c12_i32 : i32 loc(#loc5)
    %4 = arith.divsi %0, %c12_i32 : i32 loc(#loc6)
    %5 = arith.addi %2, %cst : tensor<1x64xi32> loc(#loc7)
    %6 = arith.muli %3, %c64_i32 : i32 loc(#loc8)
    %7 = tt.splat %6 : i32 -> tensor<1x64xi32> loc(#loc23)
    %8 = arith.addi %5, %7 : tensor<1x64xi32> loc(#loc9)
    %9 = arith.muli %4, %c2304_i32 : i32 loc(#loc10)
    %10 = tt.splat %9 : i32 -> tensor<1x64xi32> loc(#loc24)
    %11 = arith.addi %8, %10 : tensor<1x64xi32> loc(#loc11)
    %12 = tt.splat %arg0 : !tt.ptr<bf16> -> tensor<1x64x!tt.ptr<bf16>> loc(#loc12)
    %13 = tt.addptr %12, %11 : tensor<1x64x!tt.ptr<bf16>>, tensor<1x64xi32> loc(#loc12)
    %14 = tt.load %13 : tensor<1x64x!tt.ptr<bf16>> loc(#loc13)
    %15 = arith.extf %14 : tensor<1x64xbf16> to tensor<1x64xf32> loc(#loc14)
    %16 = arith.mulf %15, %15 : tensor<1x64xf32> loc(#loc15)
    %17 = "tt.reduce"(%16) <{axis = 1 : i32}> ({
    ^bb0(%arg4: f32 loc(callsite(#loc1 at #loc17)), %arg5: f32 loc(callsite(#loc1 at #loc17))):
      %21 = arith.addf %arg4, %arg5 : f32 loc(#loc28)
      tt.reduce.return %21 : f32 loc(#loc25)
    }) : (tensor<1x64xf32>) -> tensor<1xf32> loc(#loc25)
    %18 = tt.expand_dims %17 {axis = 1 : i32} : tensor<1xf32> -> tensor<1x1xf32> loc(#loc19)
    %19 = tt.addptr %arg1, %0 : !tt.ptr<f32>, i32 loc(#loc20)
    %20 = tt.splat %19 : !tt.ptr<f32> -> tensor<1x1x!tt.ptr<f32>> loc(#loc20)
    tt.store %20, %18 : tensor<1x1x!tt.ptr<f32>> loc(#loc21)
    tt.return loc(#loc22)
  } loc(#loc)
} loc(#loc)
#loc2 = loc("results/my_experiment/torchinductor_cache_0/op/copyq2b4jap6aqjvbv7exwa7tholimoxttv2t4zt72kddw6ybshd.py":24:28)
#loc3 = loc("results/my_experiment/torchinductor_cache_0/op/copyq2b4jap6aqjvbv7exwa7tholimoxttv2t4zt72kddw6ybshd.py":27:28)
#loc4 = loc("results/my_experiment/torchinductor_cache_0/op/copyq2b4jap6aqjvbv7exwa7tholimoxttv2t4zt72kddw6ybshd.py":27:38)
#loc5 = loc("results/my_experiment/torchinductor_cache_0/op/copyq2b4jap6aqjvbv7exwa7tholimoxttv2t4zt72kddw6ybshd.py":33:19)
#loc6 = loc("results/my_experiment/torchinductor_cache_0/op/copyq2b4jap6aqjvbv7exwa7tholimoxttv2t4zt72kddw6ybshd.py":34:19)
#loc7 = loc("results/my_experiment/torchinductor_cache_0/op/copyq2b4jap6aqjvbv7exwa7tholimoxttv2t4zt72kddw6ybshd.py":36:36)
#loc8 = loc("results/my_experiment/torchinductor_cache_0/op/copyq2b4jap6aqjvbv7exwa7tholimoxttv2t4zt72kddw6ybshd.py":36:46)
#loc9 = loc("results/my_experiment/torchinductor_cache_0/op/copyq2b4jap6aqjvbv7exwa7tholimoxttv2t4zt72kddw6ybshd.py":36:43)
#loc10 = loc("results/my_experiment/torchinductor_cache_0/op/copyq2b4jap6aqjvbv7exwa7tholimoxttv2t4zt72kddw6ybshd.py":36:56)
#loc11 = loc("results/my_experiment/torchinductor_cache_0/op/copyq2b4jap6aqjvbv7exwa7tholimoxttv2t4zt72kddw6ybshd.py":36:51)
#loc12 = loc("results/my_experiment/torchinductor_cache_0/op/copyq2b4jap6aqjvbv7exwa7tholimoxttv2t4zt72kddw6ybshd.py":36:30)
#loc13 = loc("results/my_experiment/torchinductor_cache_0/op/copyq2b4jap6aqjvbv7exwa7tholimoxttv2t4zt72kddw6ybshd.py":36:61)
#loc14 = loc("results/my_experiment/torchinductor_cache_0/op/copyq2b4jap6aqjvbv7exwa7tholimoxttv2t4zt72kddw6ybshd.py":36:70)
#loc15 = loc("results/my_experiment/torchinductor_cache_0/op/copyq2b4jap6aqjvbv7exwa7tholimoxttv2t4zt72kddw6ybshd.py":38:18)
#loc16 = loc("/home/utka/proj/evs/vlm/lib/python3.12/site-packages/triton/language/standard.py":286:36)
#loc18 = loc("/home/utka/proj/evs/vlm/lib/python3.12/site-packages/triton/language/standard.py":256:15)
#loc19 = loc("results/my_experiment/torchinductor_cache_0/op/copyq2b4jap6aqjvbv7exwa7tholimoxttv2t4zt72kddw6ybshd.py":40:27)
#loc20 = loc("results/my_experiment/torchinductor_cache_0/op/copyq2b4jap6aqjvbv7exwa7tholimoxttv2t4zt72kddw6ybshd.py":41:25)
#loc21 = loc("results/my_experiment/torchinductor_cache_0/op/copyq2b4jap6aqjvbv7exwa7tholimoxttv2t4zt72kddw6ybshd.py":41:36)
#loc22 = loc("results/my_experiment/torchinductor_cache_0/op/copyq2b4jap6aqjvbv7exwa7tholimoxttv2t4zt72kddw6ybshd.py":41:4)
#loc23 = loc(fused[#loc9, #loc8])
#loc24 = loc(fused[#loc11, #loc10])
#loc25 = loc(callsite(#loc16 at #loc17))
#loc27 = loc(callsite(#loc18 at #loc16))
#loc28 = loc(callsite(#loc27 at #loc17))
