#loc = loc("results/my_experiment/torchinductor_cache_0/je/cjeykrd52774mcce752yilnhc3qm4nv4jotis2bcmqptx3o67iqy.py":18:0)
module {
  tt.func public @triton_poi_fused_add_mul_5(%arg0: !tt.ptr<bf16> {tt.divisibility = 16 : i32} loc("results/my_experiment/torchinductor_cache_0/je/cjeykrd52774mcce752yilnhc3qm4nv4jotis2bcmqptx3o67iqy.py":18:0), %arg1: !tt.ptr<bf16> {tt.divisibility = 16 : i32} loc("results/my_experiment/torchinductor_cache_0/je/cjeykrd52774mcce752yilnhc3qm4nv4jotis2bcmqptx3o67iqy.py":18:0), %arg2: !tt.ptr<bf16> {tt.divisibility = 16 : i32} loc("results/my_experiment/torchinductor_cache_0/je/cjeykrd52774mcce752yilnhc3qm4nv4jotis2bcmqptx3o67iqy.py":18:0), %arg3: !tt.ptr<bf16> {tt.divisibility = 16 : i32} loc("results/my_experiment/torchinductor_cache_0/je/cjeykrd52774mcce752yilnhc3qm4nv4jotis2bcmqptx3o67iqy.py":18:0), %arg4: i32 {tt.divisibility = 16 : i32} loc("results/my_experiment/torchinductor_cache_0/je/cjeykrd52774mcce752yilnhc3qm4nv4jotis2bcmqptx3o67iqy.py":18:0)) attributes {noinline = false} {
    %cst = arith.constant dense<6912> : tensor<1024xi32> loc(#loc1)
    %cst_0 = arith.constant dense<4718592> : tensor<1024xi32> loc(#loc1)
    %cst_1 = arith.constant dense<1152> : tensor<1024xi32> loc(#loc1)
    %c1024_i32 = arith.constant 1024 : i32 loc(#loc1)
    %0 = tt.get_program_id x : i32 loc(#loc2)
    %1 = arith.muli %0, %c1024_i32 : i32 loc(#loc3)
    %2 = tt.make_range {end = 1024 : i32, start = 0 : i32} : tensor<1024xi32> loc(#loc4)
    %3 = tt.splat %1 : i32 -> tensor<1024xi32> loc(#loc5)
    %4 = arith.addi %3, %2 : tensor<1024xi32> loc(#loc5)
    %5 = arith.remsi %4, %cst_1 : tensor<1024xi32> loc(#loc6)
    %6 = arith.divsi %4, %cst_0 : tensor<1024xi32> loc(#loc7)
    %7 = tt.splat %arg0 : !tt.ptr<bf16> -> tensor<1024x!tt.ptr<bf16>> loc(#loc8)
    %8 = tt.addptr %7, %4 : tensor<1024x!tt.ptr<bf16>>, tensor<1024xi32> loc(#loc8)
    %9 = tt.load %8 : tensor<1024x!tt.ptr<bf16>> loc(#loc9)
    %10 = arith.extf %9 : tensor<1024xbf16> to tensor<1024xf32> loc(#loc10)
    %11 = arith.muli %6, %cst : tensor<1024xi32> loc(#loc11)
    %12 = arith.addi %5, %11 : tensor<1024xi32> loc(#loc12)
    %13 = tt.splat %arg1 : !tt.ptr<bf16> -> tensor<1024x!tt.ptr<bf16>> loc(#loc13)
    %14 = tt.addptr %13, %12 : tensor<1024x!tt.ptr<bf16>>, tensor<1024xi32> loc(#loc13)
    %15 = tt.load %14 evictionPolicy = evict_last : tensor<1024x!tt.ptr<bf16>> loc(#loc14)
    %16 = arith.extf %15 : tensor<1024xbf16> to tensor<1024xf32> loc(#loc15)
    %17 = tt.splat %arg2 : !tt.ptr<bf16> -> tensor<1024x!tt.ptr<bf16>> loc(#loc16)
    %18 = tt.addptr %17, %4 : tensor<1024x!tt.ptr<bf16>>, tensor<1024xi32> loc(#loc16)
    %19 = tt.load %18 : tensor<1024x!tt.ptr<bf16>> loc(#loc17)
    %20 = arith.extf %19 : tensor<1024xbf16> to tensor<1024xf32> loc(#loc18)
    %21 = arith.mulf %16, %20 : tensor<1024xf32> loc(#loc19)
    %22 = arith.addf %10, %21 : tensor<1024xf32> loc(#loc20)
    %23 = tt.splat %arg3 : !tt.ptr<bf16> -> tensor<1024x!tt.ptr<bf16>> loc(#loc21)
    %24 = tt.addptr %23, %4 : tensor<1024x!tt.ptr<bf16>>, tensor<1024xi32> loc(#loc21)
    %25 = arith.truncf %22 : tensor<1024xf32> to tensor<1024xbf16> loc(#loc22)
    tt.store %24, %25 : tensor<1024x!tt.ptr<bf16>> loc(#loc22)
    tt.return loc(#loc23)
  } loc(#loc)
} loc(#loc)
#loc1 = loc(unknown)
#loc2 = loc("results/my_experiment/torchinductor_cache_0/je/cjeykrd52774mcce752yilnhc3qm4nv4jotis2bcmqptx3o67iqy.py":20:28)
#loc3 = loc("results/my_experiment/torchinductor_cache_0/je/cjeykrd52774mcce752yilnhc3qm4nv4jotis2bcmqptx3o67iqy.py":20:33)
#loc4 = loc("results/my_experiment/torchinductor_cache_0/je/cjeykrd52774mcce752yilnhc3qm4nv4jotis2bcmqptx3o67iqy.py":21:36)
#loc5 = loc("results/my_experiment/torchinductor_cache_0/je/cjeykrd52774mcce752yilnhc3qm4nv4jotis2bcmqptx3o67iqy.py":21:23)
#loc6 = loc("results/my_experiment/torchinductor_cache_0/je/cjeykrd52774mcce752yilnhc3qm4nv4jotis2bcmqptx3o67iqy.py":24:19)
#loc7 = loc("results/my_experiment/torchinductor_cache_0/je/cjeykrd52774mcce752yilnhc3qm4nv4jotis2bcmqptx3o67iqy.py":25:19)
#loc8 = loc("results/my_experiment/torchinductor_cache_0/je/cjeykrd52774mcce752yilnhc3qm4nv4jotis2bcmqptx3o67iqy.py":26:30)
#loc9 = loc("results/my_experiment/torchinductor_cache_0/je/cjeykrd52774mcce752yilnhc3qm4nv4jotis2bcmqptx3o67iqy.py":26:35)
#loc10 = loc("results/my_experiment/torchinductor_cache_0/je/cjeykrd52774mcce752yilnhc3qm4nv4jotis2bcmqptx3o67iqy.py":26:44)
#loc11 = loc("results/my_experiment/torchinductor_cache_0/je/cjeykrd52774mcce752yilnhc3qm4nv4jotis2bcmqptx3o67iqy.py":27:40)
#loc12 = loc("results/my_experiment/torchinductor_cache_0/je/cjeykrd52774mcce752yilnhc3qm4nv4jotis2bcmqptx3o67iqy.py":27:35)
#loc13 = loc("results/my_experiment/torchinductor_cache_0/je/cjeykrd52774mcce752yilnhc3qm4nv4jotis2bcmqptx3o67iqy.py":27:30)
#loc14 = loc("results/my_experiment/torchinductor_cache_0/je/cjeykrd52774mcce752yilnhc3qm4nv4jotis2bcmqptx3o67iqy.py":27:45)
#loc15 = loc("results/my_experiment/torchinductor_cache_0/je/cjeykrd52774mcce752yilnhc3qm4nv4jotis2bcmqptx3o67iqy.py":27:84)
#loc16 = loc("results/my_experiment/torchinductor_cache_0/je/cjeykrd52774mcce752yilnhc3qm4nv4jotis2bcmqptx3o67iqy.py":28:30)
#loc17 = loc("results/my_experiment/torchinductor_cache_0/je/cjeykrd52774mcce752yilnhc3qm4nv4jotis2bcmqptx3o67iqy.py":28:35)
#loc18 = loc("results/my_experiment/torchinductor_cache_0/je/cjeykrd52774mcce752yilnhc3qm4nv4jotis2bcmqptx3o67iqy.py":28:44)
#loc19 = loc("results/my_experiment/torchinductor_cache_0/je/cjeykrd52774mcce752yilnhc3qm4nv4jotis2bcmqptx3o67iqy.py":29:18)
#loc20 = loc("results/my_experiment/torchinductor_cache_0/je/cjeykrd52774mcce752yilnhc3qm4nv4jotis2bcmqptx3o67iqy.py":30:18)
#loc21 = loc("results/my_experiment/torchinductor_cache_0/je/cjeykrd52774mcce752yilnhc3qm4nv4jotis2bcmqptx3o67iqy.py":31:25)
#loc22 = loc("results/my_experiment/torchinductor_cache_0/je/cjeykrd52774mcce752yilnhc3qm4nv4jotis2bcmqptx3o67iqy.py":31:36)
#loc23 = loc("results/my_experiment/torchinductor_cache_0/je/cjeykrd52774mcce752yilnhc3qm4nv4jotis2bcmqptx3o67iqy.py":31:4)
