#loc = loc("results/my_experiment/torchinductor_cache_0/3d/c3dc2imzp2eykl6ahisl7aga627kznurxzkzkcmnlcvtjwqidac2.py":18:0)
module {
  tt.func public @triton_poi_fused_clone_10(%arg0: !tt.ptr<bf16> {tt.divisibility = 16 : i32} loc("results/my_experiment/torchinductor_cache_0/3d/c3dc2imzp2eykl6ahisl7aga627kznurxzkzkcmnlcvtjwqidac2.py":18:0), %arg1: !tt.ptr<bf16> {tt.divisibility = 16 : i32} loc("results/my_experiment/torchinductor_cache_0/3d/c3dc2imzp2eykl6ahisl7aga627kznurxzkzkcmnlcvtjwqidac2.py":18:0), %arg2: i32 {tt.divisibility = 16 : i32} loc("results/my_experiment/torchinductor_cache_0/3d/c3dc2imzp2eykl6ahisl7aga627kznurxzkzkcmnlcvtjwqidac2.py":18:0)) attributes {noinline = false} {
    %cst = arith.constant dense<3342336> : tensor<1024xi32> loc(#loc1)
    %cst_0 = arith.constant dense<196608> : tensor<1024xi32> loc(#loc1)
    %cst_1 = arith.constant dense<3145728> : tensor<1024xi32> loc(#loc1)
    %c1024_i32 = arith.constant 1024 : i32 loc(#loc1)
    %0 = tt.get_program_id x : i32 loc(#loc2)
    %1 = arith.muli %0, %c1024_i32 : i32 loc(#loc3)
    %2 = tt.make_range {end = 1024 : i32, start = 0 : i32} : tensor<1024xi32> loc(#loc4)
    %3 = tt.splat %1 : i32 -> tensor<1024xi32> loc(#loc5)
    %4 = arith.addi %3, %2 : tensor<1024xi32> loc(#loc5)
    %5 = arith.remsi %4, %cst_1 : tensor<1024xi32> loc(#loc6)
    %6 = arith.divsi %4, %cst_1 : tensor<1024xi32> loc(#loc7)
    %7 = arith.addi %5, %cst_0 : tensor<1024xi32> loc(#loc8)
    %8 = arith.muli %6, %cst : tensor<1024xi32> loc(#loc9)
    %9 = arith.addi %7, %8 : tensor<1024xi32> loc(#loc10)
    %10 = tt.splat %arg0 : !tt.ptr<bf16> -> tensor<1024x!tt.ptr<bf16>> loc(#loc11)
    %11 = tt.addptr %10, %9 : tensor<1024x!tt.ptr<bf16>>, tensor<1024xi32> loc(#loc11)
    %12 = tt.load %11 : tensor<1024x!tt.ptr<bf16>> loc(#loc12)
    %13 = arith.extf %12 : tensor<1024xbf16> to tensor<1024xf32> loc(#loc13)
    %14 = tt.splat %arg1 : !tt.ptr<bf16> -> tensor<1024x!tt.ptr<bf16>> loc(#loc14)
    %15 = tt.addptr %14, %4 : tensor<1024x!tt.ptr<bf16>>, tensor<1024xi32> loc(#loc14)
    %16 = arith.truncf %13 : tensor<1024xf32> to tensor<1024xbf16> loc(#loc15)
    tt.store %15, %16 : tensor<1024x!tt.ptr<bf16>> loc(#loc15)
    tt.return loc(#loc16)
  } loc(#loc)
} loc(#loc)
#loc1 = loc(unknown)
#loc2 = loc("results/my_experiment/torchinductor_cache_0/3d/c3dc2imzp2eykl6ahisl7aga627kznurxzkzkcmnlcvtjwqidac2.py":20:28)
#loc3 = loc("results/my_experiment/torchinductor_cache_0/3d/c3dc2imzp2eykl6ahisl7aga627kznurxzkzkcmnlcvtjwqidac2.py":20:33)
#loc4 = loc("results/my_experiment/torchinductor_cache_0/3d/c3dc2imzp2eykl6ahisl7aga627kznurxzkzkcmnlcvtjwqidac2.py":21:36)
#loc5 = loc("results/my_experiment/torchinductor_cache_0/3d/c3dc2imzp2eykl6ahisl7aga627kznurxzkzkcmnlcvtjwqidac2.py":21:23)
#loc6 = loc("results/my_experiment/torchinductor_cache_0/3d/c3dc2imzp2eykl6ahisl7aga627kznurxzkzkcmnlcvtjwqidac2.py":23:19)
#loc7 = loc("results/my_experiment/torchinductor_cache_0/3d/c3dc2imzp2eykl6ahisl7aga627kznurxzkzkcmnlcvtjwqidac2.py":24:19)
#loc8 = loc("results/my_experiment/torchinductor_cache_0/3d/c3dc2imzp2eykl6ahisl7aga627kznurxzkzkcmnlcvtjwqidac2.py":26:39)
#loc9 = loc("results/my_experiment/torchinductor_cache_0/3d/c3dc2imzp2eykl6ahisl7aga627kznurxzkzkcmnlcvtjwqidac2.py":26:52)
#loc10 = loc("results/my_experiment/torchinductor_cache_0/3d/c3dc2imzp2eykl6ahisl7aga627kznurxzkzkcmnlcvtjwqidac2.py":26:44)
#loc11 = loc("results/my_experiment/torchinductor_cache_0/3d/c3dc2imzp2eykl6ahisl7aga627kznurxzkzkcmnlcvtjwqidac2.py":26:30)
#loc12 = loc("results/my_experiment/torchinductor_cache_0/3d/c3dc2imzp2eykl6ahisl7aga627kznurxzkzkcmnlcvtjwqidac2.py":26:57)
#loc13 = loc("results/my_experiment/torchinductor_cache_0/3d/c3dc2imzp2eykl6ahisl7aga627kznurxzkzkcmnlcvtjwqidac2.py":26:66)
#loc14 = loc("results/my_experiment/torchinductor_cache_0/3d/c3dc2imzp2eykl6ahisl7aga627kznurxzkzkcmnlcvtjwqidac2.py":27:25)
#loc15 = loc("results/my_experiment/torchinductor_cache_0/3d/c3dc2imzp2eykl6ahisl7aga627kznurxzkzkcmnlcvtjwqidac2.py":27:36)
#loc16 = loc("results/my_experiment/torchinductor_cache_0/3d/c3dc2imzp2eykl6ahisl7aga627kznurxzkzkcmnlcvtjwqidac2.py":27:4)
