#loc = loc("results/my_experiment/torchinductor_cache_0/hy/chywlf67jg6oathfpxfsthnbj4wrhvcxfgyq74ragxousvwknzmy.py":18:0)
module {
  tt.func public @triton_poi_fused__to_copy_mul_17(%arg0: !tt.ptr<bf16> {tt.divisibility = 16 : i32} loc("results/my_experiment/torchinductor_cache_0/hy/chywlf67jg6oathfpxfsthnbj4wrhvcxfgyq74ragxousvwknzmy.py":18:0), %arg1: !tt.ptr<f32> {tt.divisibility = 16 : i32} loc("results/my_experiment/torchinductor_cache_0/hy/chywlf67jg6oathfpxfsthnbj4wrhvcxfgyq74ragxousvwknzmy.py":18:0), %arg2: !tt.ptr<f32> {tt.divisibility = 16 : i32} loc("results/my_experiment/torchinductor_cache_0/hy/chywlf67jg6oathfpxfsthnbj4wrhvcxfgyq74ragxousvwknzmy.py":18:0), %arg3: !tt.ptr<bf16> {tt.divisibility = 16 : i32} loc("results/my_experiment/torchinductor_cache_0/hy/chywlf67jg6oathfpxfsthnbj4wrhvcxfgyq74ragxousvwknzmy.py":18:0), %arg4: i32 {tt.divisibility = 16 : i32} loc("results/my_experiment/torchinductor_cache_0/hy/chywlf67jg6oathfpxfsthnbj4wrhvcxfgyq74ragxousvwknzmy.py":18:0)) attributes {noinline = false} {
    %cst = arith.constant dense<49152> : tensor<1024xi32> loc(#loc1)
    %cst_0 = arith.constant dense<2304> : tensor<1024xi32> loc(#loc1)
    %cst_1 = arith.constant dense<3145728> : tensor<1024xi32> loc(#loc1)
    %cst_2 = arith.constant dense<4096> : tensor<1024xi32> loc(#loc1)
    %cst_3 = arith.constant dense<12> : tensor<1024xi32> loc(#loc1)
    %cst_4 = arith.constant dense<64> : tensor<1024xi32> loc(#loc1)
    %cst_5 = arith.constant dense<768> : tensor<1024xi32> loc(#loc1)
    %c1024_i32 = arith.constant 1024 : i32 loc(#loc1)
    %0 = tt.get_program_id x : i32 loc(#loc2)
    %1 = arith.muli %0, %c1024_i32 : i32 loc(#loc3)
    %2 = tt.make_range {end = 1024 : i32, start = 0 : i32} : tensor<1024xi32> loc(#loc4)
    %3 = tt.splat %1 : i32 -> tensor<1024xi32> loc(#loc5)
    %4 = arith.addi %3, %2 : tensor<1024xi32> loc(#loc5)
    %5 = arith.remsi %4, %cst_5 : tensor<1024xi32> loc(#loc6)
    %6 = arith.divsi %4, %cst_5 : tensor<1024xi32> loc(#loc7)
    %7 = arith.divsi %4, %cst_4 : tensor<1024xi32> loc(#loc8)
    %8 = arith.remsi %7, %cst_3 : tensor<1024xi32> loc(#loc9)
    %9 = arith.remsi %6, %cst_2 : tensor<1024xi32> loc(#loc10)
    %10 = arith.divsi %4, %cst_1 : tensor<1024xi32> loc(#loc11)
    %11 = arith.remsi %4, %cst_4 : tensor<1024xi32> loc(#loc12)
    %12 = arith.addi %5, %cst_5 : tensor<1024xi32> loc(#loc13)
    %13 = arith.muli %6, %cst_0 : tensor<1024xi32> loc(#loc14)
    %14 = arith.addi %12, %13 : tensor<1024xi32> loc(#loc15)
    %15 = tt.splat %arg0 : !tt.ptr<bf16> -> tensor<1024x!tt.ptr<bf16>> loc(#loc16)
    %16 = tt.addptr %15, %14 : tensor<1024x!tt.ptr<bf16>>, tensor<1024xi32> loc(#loc16)
    %17 = tt.load %16 : tensor<1024x!tt.ptr<bf16>> loc(#loc17)
    %18 = arith.extf %17 : tensor<1024xbf16> to tensor<1024xf32> loc(#loc18)
    %19 = arith.muli %8, %cst_2 : tensor<1024xi32> loc(#loc19)
    %20 = arith.addi %9, %19 : tensor<1024xi32> loc(#loc20)
    %21 = arith.muli %10, %cst : tensor<1024xi32> loc(#loc21)
    %22 = arith.addi %20, %21 : tensor<1024xi32> loc(#loc22)
    %23 = tt.splat %arg1 : !tt.ptr<f32> -> tensor<1024x!tt.ptr<f32>> loc(#loc23)
    %24 = tt.addptr %23, %22 : tensor<1024x!tt.ptr<f32>>, tensor<1024xi32> loc(#loc23)
    %25 = tt.load %24 evictionPolicy = evict_last : tensor<1024x!tt.ptr<f32>> loc(#loc24)
    %26 = tt.splat %arg2 : !tt.ptr<f32> -> tensor<1024x!tt.ptr<f32>> loc(#loc25)
    %27 = tt.addptr %26, %11 : tensor<1024x!tt.ptr<f32>>, tensor<1024xi32> loc(#loc25)
    %28 = tt.load %27 evictionPolicy = evict_last : tensor<1024x!tt.ptr<f32>> loc(#loc26)
    %29 = arith.mulf %18, %25 : tensor<1024xf32> loc(#loc27)
    %30 = arith.mulf %29, %28 : tensor<1024xf32> loc(#loc28)
    %31 = tt.splat %arg3 : !tt.ptr<bf16> -> tensor<1024x!tt.ptr<bf16>> loc(#loc29)
    %32 = tt.addptr %31, %4 : tensor<1024x!tt.ptr<bf16>>, tensor<1024xi32> loc(#loc29)
    %33 = arith.truncf %30 : tensor<1024xf32> to tensor<1024xbf16> loc(#loc30)
    tt.store %32, %33 : tensor<1024x!tt.ptr<bf16>> loc(#loc30)
    tt.return loc(#loc31)
  } loc(#loc)
} loc(#loc)
#loc1 = loc(unknown)
#loc2 = loc("results/my_experiment/torchinductor_cache_0/hy/chywlf67jg6oathfpxfsthnbj4wrhvcxfgyq74ragxousvwknzmy.py":20:28)
#loc3 = loc("results/my_experiment/torchinductor_cache_0/hy/chywlf67jg6oathfpxfsthnbj4wrhvcxfgyq74ragxousvwknzmy.py":20:33)
#loc4 = loc("results/my_experiment/torchinductor_cache_0/hy/chywlf67jg6oathfpxfsthnbj4wrhvcxfgyq74ragxousvwknzmy.py":21:36)
#loc5 = loc("results/my_experiment/torchinductor_cache_0/hy/chywlf67jg6oathfpxfsthnbj4wrhvcxfgyq74ragxousvwknzmy.py":21:23)
#loc6 = loc("results/my_experiment/torchinductor_cache_0/hy/chywlf67jg6oathfpxfsthnbj4wrhvcxfgyq74ragxousvwknzmy.py":23:19)
#loc7 = loc("results/my_experiment/torchinductor_cache_0/hy/chywlf67jg6oathfpxfsthnbj4wrhvcxfgyq74ragxousvwknzmy.py":24:19)
#loc8 = loc("results/my_experiment/torchinductor_cache_0/hy/chywlf67jg6oathfpxfsthnbj4wrhvcxfgyq74ragxousvwknzmy.py":25:21)
#loc9 = loc("results/my_experiment/torchinductor_cache_0/hy/chywlf67jg6oathfpxfsthnbj4wrhvcxfgyq74ragxousvwknzmy.py":25:27)
#loc10 = loc("results/my_experiment/torchinductor_cache_0/hy/chywlf67jg6oathfpxfsthnbj4wrhvcxfgyq74ragxousvwknzmy.py":26:28)
#loc11 = loc("results/my_experiment/torchinductor_cache_0/hy/chywlf67jg6oathfpxfsthnbj4wrhvcxfgyq74ragxousvwknzmy.py":27:19)
#loc12 = loc("results/my_experiment/torchinductor_cache_0/hy/chywlf67jg6oathfpxfsthnbj4wrhvcxfgyq74ragxousvwknzmy.py":28:19)
#loc13 = loc("results/my_experiment/torchinductor_cache_0/hy/chywlf67jg6oathfpxfsthnbj4wrhvcxfgyq74ragxousvwknzmy.py":30:36)
#loc14 = loc("results/my_experiment/torchinductor_cache_0/hy/chywlf67jg6oathfpxfsthnbj4wrhvcxfgyq74ragxousvwknzmy.py":30:46)
#loc15 = loc("results/my_experiment/torchinductor_cache_0/hy/chywlf67jg6oathfpxfsthnbj4wrhvcxfgyq74ragxousvwknzmy.py":30:41)
#loc16 = loc("results/my_experiment/torchinductor_cache_0/hy/chywlf67jg6oathfpxfsthnbj4wrhvcxfgyq74ragxousvwknzmy.py":30:30)
#loc17 = loc("results/my_experiment/torchinductor_cache_0/hy/chywlf67jg6oathfpxfsthnbj4wrhvcxfgyq74ragxousvwknzmy.py":30:51)
#loc18 = loc("results/my_experiment/torchinductor_cache_0/hy/chywlf67jg6oathfpxfsthnbj4wrhvcxfgyq74ragxousvwknzmy.py":30:60)
#loc19 = loc("results/my_experiment/torchinductor_cache_0/hy/chywlf67jg6oathfpxfsthnbj4wrhvcxfgyq74ragxousvwknzmy.py":31:40)
#loc20 = loc("results/my_experiment/torchinductor_cache_0/hy/chywlf67jg6oathfpxfsthnbj4wrhvcxfgyq74ragxousvwknzmy.py":31:35)
#loc21 = loc("results/my_experiment/torchinductor_cache_0/hy/chywlf67jg6oathfpxfsthnbj4wrhvcxfgyq74ragxousvwknzmy.py":31:51)
#loc22 = loc("results/my_experiment/torchinductor_cache_0/hy/chywlf67jg6oathfpxfsthnbj4wrhvcxfgyq74ragxousvwknzmy.py":31:45)
#loc23 = loc("results/my_experiment/torchinductor_cache_0/hy/chywlf67jg6oathfpxfsthnbj4wrhvcxfgyq74ragxousvwknzmy.py":31:30)
#loc24 = loc("results/my_experiment/torchinductor_cache_0/hy/chywlf67jg6oathfpxfsthnbj4wrhvcxfgyq74ragxousvwknzmy.py":31:56)
#loc25 = loc("results/my_experiment/torchinductor_cache_0/hy/chywlf67jg6oathfpxfsthnbj4wrhvcxfgyq74ragxousvwknzmy.py":32:30)
#loc26 = loc("results/my_experiment/torchinductor_cache_0/hy/chywlf67jg6oathfpxfsthnbj4wrhvcxfgyq74ragxousvwknzmy.py":32:35)
#loc27 = loc("results/my_experiment/torchinductor_cache_0/hy/chywlf67jg6oathfpxfsthnbj4wrhvcxfgyq74ragxousvwknzmy.py":34:18)
#loc28 = loc("results/my_experiment/torchinductor_cache_0/hy/chywlf67jg6oathfpxfsthnbj4wrhvcxfgyq74ragxousvwknzmy.py":37:18)
#loc29 = loc("results/my_experiment/torchinductor_cache_0/hy/chywlf67jg6oathfpxfsthnbj4wrhvcxfgyq74ragxousvwknzmy.py":39:25)
#loc30 = loc("results/my_experiment/torchinductor_cache_0/hy/chywlf67jg6oathfpxfsthnbj4wrhvcxfgyq74ragxousvwknzmy.py":39:36)
#loc31 = loc("results/my_experiment/torchinductor_cache_0/hy/chywlf67jg6oathfpxfsthnbj4wrhvcxfgyq74ragxousvwknzmy.py":39:4)
