#loc = loc("results/my_experiment/torchinductor_cache_0/ca/ccaommxw5u7mfonaezgsfilp3qonlozbqsyb2ygn2xyzxjz73qk2.py":18:0)
module {
  tt.func public @triton_poi_fused_add_1(%arg0: !tt.ptr<bf16> {tt.divisibility = 16 : i32} loc("results/my_experiment/torchinductor_cache_0/ca/ccaommxw5u7mfonaezgsfilp3qonlozbqsyb2ygn2xyzxjz73qk2.py":18:0), %arg1: !tt.ptr<f32> {tt.divisibility = 16 : i32} loc("results/my_experiment/torchinductor_cache_0/ca/ccaommxw5u7mfonaezgsfilp3qonlozbqsyb2ygn2xyzxjz73qk2.py":18:0), %arg2: !tt.ptr<bf16> {tt.divisibility = 16 : i32} loc("results/my_experiment/torchinductor_cache_0/ca/ccaommxw5u7mfonaezgsfilp3qonlozbqsyb2ygn2xyzxjz73qk2.py":18:0), %arg3: i32 {tt.divisibility = 16 : i32} loc("results/my_experiment/torchinductor_cache_0/ca/ccaommxw5u7mfonaezgsfilp3qonlozbqsyb2ygn2xyzxjz73qk2.py":18:0)) attributes {noinline = false} {
    %cst = arith.constant dense<1.000000e+00> : tensor<128xf32> loc(#loc1)
    %cst_0 = arith.constant dense<1152> : tensor<128xi32> loc(#loc1)
    %cst_1 = arith.constant dense<2304> : tensor<128xi32> loc(#loc1)
    %c128_i32 = arith.constant 128 : i32 loc(#loc1)
    %0 = tt.get_program_id x : i32 loc(#loc2)
    %1 = arith.muli %0, %c128_i32 : i32 loc(#loc3)
    %2 = tt.make_range {end = 128 : i32, start = 0 : i32} : tensor<128xi32> loc(#loc4)
    %3 = tt.splat %1 : i32 -> tensor<128xi32> loc(#loc5)
    %4 = arith.addi %3, %2 : tensor<128xi32> loc(#loc5)
    %5 = arith.cmpi slt, %4, %cst_1 : tensor<128xi32> loc(#loc6)
    %6 = arith.remsi %4, %cst_0 : tensor<128xi32> loc(#loc7)
    %7 = arith.divsi %4, %cst_0 : tensor<128xi32> loc(#loc8)
    %8 = arith.addi %6, %cst_0 : tensor<128xi32> loc(#loc9)
    %9 = arith.muli %7, %cst_1 : tensor<128xi32> loc(#loc10)
    %10 = arith.addi %8, %9 : tensor<128xi32> loc(#loc11)
    %11 = tt.splat %arg0 : !tt.ptr<bf16> -> tensor<128x!tt.ptr<bf16>> loc(#loc12)
    %12 = tt.addptr %11, %10 : tensor<128x!tt.ptr<bf16>>, tensor<128xi32> loc(#loc12)
    %13 = tt.load %12, %5 : tensor<128x!tt.ptr<bf16>> loc(#loc13)
    %14 = arith.extf %13 : tensor<128xbf16> to tensor<128xf32> loc(#loc14)
    %15 = tt.splat %arg1 : !tt.ptr<f32> -> tensor<128x!tt.ptr<f32>> loc(#loc15)
    %16 = tt.addptr %15, %8 : tensor<128x!tt.ptr<f32>>, tensor<128xi32> loc(#loc15)
    %17 = tt.load %16, %5 evictionPolicy = evict_last : tensor<128x!tt.ptr<f32>> loc(#loc16)
    %18 = arith.addf %14, %17 : tensor<128xf32> loc(#loc17)
    %19 = arith.addf %18, %cst : tensor<128xf32> loc(#loc18)
    %20 = tt.splat %arg2 : !tt.ptr<bf16> -> tensor<128x!tt.ptr<bf16>> loc(#loc19)
    %21 = tt.addptr %20, %4 : tensor<128x!tt.ptr<bf16>>, tensor<128xi32> loc(#loc19)
    %22 = arith.truncf %19 : tensor<128xf32> to tensor<128xbf16> loc(#loc20)
    tt.store %21, %22, %5 : tensor<128x!tt.ptr<bf16>> loc(#loc20)
    tt.return loc(#loc21)
  } loc(#loc)
} loc(#loc)
#loc1 = loc(unknown)
#loc2 = loc("results/my_experiment/torchinductor_cache_0/ca/ccaommxw5u7mfonaezgsfilp3qonlozbqsyb2ygn2xyzxjz73qk2.py":20:28)
#loc3 = loc("results/my_experiment/torchinductor_cache_0/ca/ccaommxw5u7mfonaezgsfilp3qonlozbqsyb2ygn2xyzxjz73qk2.py":20:33)
#loc4 = loc("results/my_experiment/torchinductor_cache_0/ca/ccaommxw5u7mfonaezgsfilp3qonlozbqsyb2ygn2xyzxjz73qk2.py":21:36)
#loc5 = loc("results/my_experiment/torchinductor_cache_0/ca/ccaommxw5u7mfonaezgsfilp3qonlozbqsyb2ygn2xyzxjz73qk2.py":21:23)
#loc6 = loc("results/my_experiment/torchinductor_cache_0/ca/ccaommxw5u7mfonaezgsfilp3qonlozbqsyb2ygn2xyzxjz73qk2.py":22:21)
#loc7 = loc("results/my_experiment/torchinductor_cache_0/ca/ccaommxw5u7mfonaezgsfilp3qonlozbqsyb2ygn2xyzxjz73qk2.py":23:19)
#loc8 = loc("results/my_experiment/torchinductor_cache_0/ca/ccaommxw5u7mfonaezgsfilp3qonlozbqsyb2ygn2xyzxjz73qk2.py":24:19)
#loc9 = loc("results/my_experiment/torchinductor_cache_0/ca/ccaommxw5u7mfonaezgsfilp3qonlozbqsyb2ygn2xyzxjz73qk2.py":26:37)
#loc10 = loc("results/my_experiment/torchinductor_cache_0/ca/ccaommxw5u7mfonaezgsfilp3qonlozbqsyb2ygn2xyzxjz73qk2.py":26:47)
#loc11 = loc("results/my_experiment/torchinductor_cache_0/ca/ccaommxw5u7mfonaezgsfilp3qonlozbqsyb2ygn2xyzxjz73qk2.py":26:42)
#loc12 = loc("results/my_experiment/torchinductor_cache_0/ca/ccaommxw5u7mfonaezgsfilp3qonlozbqsyb2ygn2xyzxjz73qk2.py":26:30)
#loc13 = loc("results/my_experiment/torchinductor_cache_0/ca/ccaommxw5u7mfonaezgsfilp3qonlozbqsyb2ygn2xyzxjz73qk2.py":26:52)
#loc14 = loc("results/my_experiment/torchinductor_cache_0/ca/ccaommxw5u7mfonaezgsfilp3qonlozbqsyb2ygn2xyzxjz73qk2.py":26:62)
#loc15 = loc("results/my_experiment/torchinductor_cache_0/ca/ccaommxw5u7mfonaezgsfilp3qonlozbqsyb2ygn2xyzxjz73qk2.py":27:30)
#loc16 = loc("results/my_experiment/torchinductor_cache_0/ca/ccaommxw5u7mfonaezgsfilp3qonlozbqsyb2ygn2xyzxjz73qk2.py":27:42)
#loc17 = loc("results/my_experiment/torchinductor_cache_0/ca/ccaommxw5u7mfonaezgsfilp3qonlozbqsyb2ygn2xyzxjz73qk2.py":29:18)
#loc18 = loc("results/my_experiment/torchinductor_cache_0/ca/ccaommxw5u7mfonaezgsfilp3qonlozbqsyb2ygn2xyzxjz73qk2.py":31:18)
#loc19 = loc("results/my_experiment/torchinductor_cache_0/ca/ccaommxw5u7mfonaezgsfilp3qonlozbqsyb2ygn2xyzxjz73qk2.py":32:25)
#loc20 = loc("results/my_experiment/torchinductor_cache_0/ca/ccaommxw5u7mfonaezgsfilp3qonlozbqsyb2ygn2xyzxjz73qk2.py":32:36)
#loc21 = loc("results/my_experiment/torchinductor_cache_0/ca/ccaommxw5u7mfonaezgsfilp3qonlozbqsyb2ygn2xyzxjz73qk2.py":32:4)
