#loc = loc("results/my_experiment/torchinductor_cache_0/3s/c3sg2gpb3pdyenoywzsdvtinxcpgtgfewdle2u5ewpsnkitx2ubu.py":18:0)
#loc1 = loc(unknown)
#loc21 = loc("results/my_experiment/torchinductor_cache_0/3s/c3sg2gpb3pdyenoywzsdvtinxcpgtgfewdle2u5ewpsnkitx2ubu.py":44:25)
#loc31 = loc(callsite(#loc1 at #loc21))
module {
  tt.func public @triton_red_fused__to_copy_mean_pow_7(%arg0: !tt.ptr<bf16> {tt.divisibility = 16 : i32} loc("results/my_experiment/torchinductor_cache_0/3s/c3sg2gpb3pdyenoywzsdvtinxcpgtgfewdle2u5ewpsnkitx2ubu.py":18:0), %arg1: !tt.ptr<f32> {tt.divisibility = 16 : i32} loc("results/my_experiment/torchinductor_cache_0/3s/c3sg2gpb3pdyenoywzsdvtinxcpgtgfewdle2u5ewpsnkitx2ubu.py":18:0), %arg2: i32 {tt.divisibility = 16 : i32} loc("results/my_experiment/torchinductor_cache_0/3s/c3sg2gpb3pdyenoywzsdvtinxcpgtgfewdle2u5ewpsnkitx2ubu.py":18:0), %arg3: i32 {tt.divisibility = 16 : i32} loc("results/my_experiment/torchinductor_cache_0/3s/c3sg2gpb3pdyenoywzsdvtinxcpgtgfewdle2u5ewpsnkitx2ubu.py":18:0)) attributes {noinline = false} {
    %c3456_i32 = arith.constant 3456 : i32 loc(#loc1)
    %c96_i32 = arith.constant 96 : i32 loc(#loc1)
    %c12_i32 = arith.constant 12 : i32 loc(#loc1)
    %c6144_i32 = arith.constant 6144 : i32 loc(#loc1)
    %cst = arith.constant dense<0.000000e+00> : tensor<1x128xbf16> loc(#loc1)
    %cst_0 = arith.constant dense<96> : tensor<1x128xi32> loc(#loc1)
    %cst_1 = arith.constant dense<0.000000e+00> : tensor<1x128xf32> loc(#loc1)
    %0 = tt.get_program_id x : i32 loc(#loc2)
    %1 = arith.cmpi slt, %0, %c6144_i32 : i32 loc(#loc3)
    %2 = tt.splat %1 : i1 -> tensor<1x1xi1> loc(#loc3)
    %3 = tt.make_range {end = 128 : i32, start = 0 : i32} : tensor<128xi32> loc(#loc4)
    %4 = tt.expand_dims %3 {axis = 0 : i32} : tensor<128xi32> -> tensor<1x128xi32> loc(#loc5)
    %5 = arith.remsi %0, %c12_i32 : i32 loc(#loc6)
    %6 = arith.divsi %0, %c12_i32 : i32 loc(#loc7)
    %7 = arith.cmpi slt, %4, %cst_0 : tensor<1x128xi32> loc(#loc8)
    %8 = arith.muli %5, %c96_i32 : i32 loc(#loc9)
    %9 = tt.splat %8 : i32 -> tensor<1x128xi32> loc(#loc27)
    %10 = arith.addi %4, %9 : tensor<1x128xi32> loc(#loc10)
    %11 = arith.muli %6, %c3456_i32 : i32 loc(#loc11)
    %12 = tt.splat %11 : i32 -> tensor<1x128xi32> loc(#loc28)
    %13 = arith.addi %10, %12 : tensor<1x128xi32> loc(#loc12)
    %14 = tt.splat %arg0 : !tt.ptr<bf16> -> tensor<1x128x!tt.ptr<bf16>> loc(#loc13)
    %15 = tt.addptr %14, %13 : tensor<1x128x!tt.ptr<bf16>>, tensor<1x128xi32> loc(#loc13)
    %16 = tt.splat %1 : i1 -> tensor<1x128xi1> loc(#loc29)
    %17 = arith.andi %16, %7 : tensor<1x128xi1> loc(#loc14)
    %18 = tt.load %15, %17, %cst evictionPolicy = evict_first : tensor<1x128x!tt.ptr<bf16>> loc(#loc15)
    %19 = arith.extf %18 : tensor<1x128xbf16> to tensor<1x128xf32> loc(#loc16)
    %20 = arith.mulf %19, %19 : tensor<1x128xf32> loc(#loc17)
    %21 = arith.addf %20, %cst_1 : tensor<1x128xf32> loc(#loc18)
    %22 = arith.select %17, %21, %cst_1 : tensor<1x128xi1>, tensor<1x128xf32> loc(#loc19)
    %23 = "tt.reduce"(%22) <{axis = 1 : i32}> ({
    ^bb0(%arg4: f32 loc(callsite(#loc1 at #loc21)), %arg5: f32 loc(callsite(#loc1 at #loc21))):
      %27 = arith.addf %arg4, %arg5 : f32 loc(#loc33)
      tt.reduce.return %27 : f32 loc(#loc30)
    }) : (tensor<1x128xf32>) -> tensor<1xf32> loc(#loc30)
    %24 = tt.expand_dims %23 {axis = 1 : i32} : tensor<1xf32> -> tensor<1x1xf32> loc(#loc23)
    %25 = tt.addptr %arg1, %0 : !tt.ptr<f32>, i32 loc(#loc24)
    %26 = tt.splat %25 : !tt.ptr<f32> -> tensor<1x1x!tt.ptr<f32>> loc(#loc24)
    tt.store %26, %24, %2 : tensor<1x1x!tt.ptr<f32>> loc(#loc25)
    tt.return loc(#loc26)
  } loc(#loc)
} loc(#loc)
#loc2 = loc("results/my_experiment/torchinductor_cache_0/3s/c3sg2gpb3pdyenoywzsdvtinxcpgtgfewdle2u5ewpsnkitx2ubu.py":23:28)
#loc3 = loc("results/my_experiment/torchinductor_cache_0/3s/c3sg2gpb3pdyenoywzsdvtinxcpgtgfewdle2u5ewpsnkitx2ubu.py":25:21)
#loc4 = loc("results/my_experiment/torchinductor_cache_0/3s/c3sg2gpb3pdyenoywzsdvtinxcpgtgfewdle2u5ewpsnkitx2ubu.py":26:27)
#loc5 = loc("results/my_experiment/torchinductor_cache_0/3s/c3sg2gpb3pdyenoywzsdvtinxcpgtgfewdle2u5ewpsnkitx2ubu.py":26:37)
#loc6 = loc("results/my_experiment/torchinductor_cache_0/3s/c3sg2gpb3pdyenoywzsdvtinxcpgtgfewdle2u5ewpsnkitx2ubu.py":28:19)
#loc7 = loc("results/my_experiment/torchinductor_cache_0/3s/c3sg2gpb3pdyenoywzsdvtinxcpgtgfewdle2u5ewpsnkitx2ubu.py":29:19)
#loc8 = loc("results/my_experiment/torchinductor_cache_0/3s/c3sg2gpb3pdyenoywzsdvtinxcpgtgfewdle2u5ewpsnkitx2ubu.py":34:29)
#loc9 = loc("results/my_experiment/torchinductor_cache_0/3s/c3sg2gpb3pdyenoywzsdvtinxcpgtgfewdle2u5ewpsnkitx2ubu.py":38:44)
#loc10 = loc("results/my_experiment/torchinductor_cache_0/3s/c3sg2gpb3pdyenoywzsdvtinxcpgtgfewdle2u5ewpsnkitx2ubu.py":38:41)
#loc11 = loc("results/my_experiment/torchinductor_cache_0/3s/c3sg2gpb3pdyenoywzsdvtinxcpgtgfewdle2u5ewpsnkitx2ubu.py":38:54)
#loc12 = loc("results/my_experiment/torchinductor_cache_0/3s/c3sg2gpb3pdyenoywzsdvtinxcpgtgfewdle2u5ewpsnkitx2ubu.py":38:49)
#loc13 = loc("results/my_experiment/torchinductor_cache_0/3s/c3sg2gpb3pdyenoywzsdvtinxcpgtgfewdle2u5ewpsnkitx2ubu.py":38:34)
#loc14 = loc("results/my_experiment/torchinductor_cache_0/3s/c3sg2gpb3pdyenoywzsdvtinxcpgtgfewdle2u5ewpsnkitx2ubu.py":38:67)
#loc15 = loc("results/my_experiment/torchinductor_cache_0/3s/c3sg2gpb3pdyenoywzsdvtinxcpgtgfewdle2u5ewpsnkitx2ubu.py":38:59)
#loc16 = loc("results/my_experiment/torchinductor_cache_0/3s/c3sg2gpb3pdyenoywzsdvtinxcpgtgfewdle2u5ewpsnkitx2ubu.py":38:121)
#loc17 = loc("results/my_experiment/torchinductor_cache_0/3s/c3sg2gpb3pdyenoywzsdvtinxcpgtgfewdle2u5ewpsnkitx2ubu.py":40:22)
#loc18 = loc("results/my_experiment/torchinductor_cache_0/3s/c3sg2gpb3pdyenoywzsdvtinxcpgtgfewdle2u5ewpsnkitx2ubu.py":42:23)
#loc19 = loc("results/my_experiment/torchinductor_cache_0/3s/c3sg2gpb3pdyenoywzsdvtinxcpgtgfewdle2u5ewpsnkitx2ubu.py":43:48)
#loc20 = loc("/home/utka/proj/evs/vlm/lib/python3.12/site-packages/triton/language/standard.py":286:36)
#loc22 = loc("/home/utka/proj/evs/vlm/lib/python3.12/site-packages/triton/language/standard.py":256:15)
#loc23 = loc("results/my_experiment/torchinductor_cache_0/3s/c3sg2gpb3pdyenoywzsdvtinxcpgtgfewdle2u5ewpsnkitx2ubu.py":44:28)
#loc24 = loc("results/my_experiment/torchinductor_cache_0/3s/c3sg2gpb3pdyenoywzsdvtinxcpgtgfewdle2u5ewpsnkitx2ubu.py":45:25)
#loc25 = loc("results/my_experiment/torchinductor_cache_0/3s/c3sg2gpb3pdyenoywzsdvtinxcpgtgfewdle2u5ewpsnkitx2ubu.py":45:36)
#loc26 = loc("results/my_experiment/torchinductor_cache_0/3s/c3sg2gpb3pdyenoywzsdvtinxcpgtgfewdle2u5ewpsnkitx2ubu.py":45:4)
#loc27 = loc(fused[#loc10, #loc9])
#loc28 = loc(fused[#loc12, #loc11])
#loc29 = loc(fused[#loc14, #loc3])
#loc30 = loc(callsite(#loc20 at #loc21))
#loc32 = loc(callsite(#loc22 at #loc20))
#loc33 = loc(callsite(#loc32 at #loc21))
