#loc = loc("results/my_experiment/torchinductor_cache_0/mw/cmwm4kicj7tjyyjbnw7cxp3ihh5ufsdkf6cllsq4da6nxolxyxqn.py":18:0)
module {
  tt.func public @triton_poi_fused__to_copy_add_mean_pow_rsqrt_14(%arg0: !tt.ptr<f32> {tt.divisibility = 16 : i32} loc("results/my_experiment/torchinductor_cache_0/mw/cmwm4kicj7tjyyjbnw7cxp3ihh5ufsdkf6cllsq4da6nxolxyxqn.py":18:0), %arg1: !tt.ptr<f32> {tt.divisibility = 16 : i32} loc("results/my_experiment/torchinductor_cache_0/mw/cmwm4kicj7tjyyjbnw7cxp3ihh5ufsdkf6cllsq4da6nxolxyxqn.py":18:0), %arg2: i32 loc("results/my_experiment/torchinductor_cache_0/mw/cmwm4kicj7tjyyjbnw7cxp3ihh5ufsdkf6cllsq4da6nxolxyxqn.py":18:0), %arg3: i32 {tt.divisibility = 16 : i32} loc("results/my_experiment/torchinductor_cache_0/mw/cmwm4kicj7tjyyjbnw7cxp3ihh5ufsdkf6cllsq4da6nxolxyxqn.py":18:0)) attributes {noinline = false} {
    %cst = arith.constant dense<4096> : tensor<1x32xi32> loc(#loc1)
    %cst_0 = arith.constant dense<9.99999997E-7> : tensor<32x32xf32> loc(#loc1)
    %cst_1 = arith.constant dense<6.400000e+01> : tensor<32x32xf32> loc(#loc1)
    %cst_2 = arith.constant dense<49152> : tensor<1x32xi32> loc(#loc1)
    %cst_3 = arith.constant dense<12> : tensor<32x1xi32> loc(#loc1)
    %cst_4 = arith.constant dense<12> : tensor<1x32xi32> loc(#loc1)
    %cst_5 = arith.constant dense<24> : tensor<1x32xi32> loc(#loc1)
    %c32_i32 = arith.constant 32 : i32 loc(#loc1)
    %0 = tt.get_program_id y : i32 loc(#loc2)
    %1 = arith.muli %0, %c32_i32 : i32 loc(#loc3)
    %2 = tt.make_range {end = 32 : i32, start = 0 : i32} : tensor<32xi32> loc(#loc4)
    %3 = tt.expand_dims %2 {axis = 0 : i32} : tensor<32xi32> -> tensor<1x32xi32> loc(#loc5)
    %4 = tt.splat %1 : i32 -> tensor<1x32xi32> loc(#loc6)
    %5 = arith.addi %4, %3 : tensor<1x32xi32> loc(#loc6)
    %6 = arith.cmpi slt, %5, %cst_5 : tensor<1x32xi32> loc(#loc7)
    %7 = tt.get_program_id x : i32 loc(#loc8)
    %8 = arith.muli %7, %c32_i32 : i32 loc(#loc9)
    %9 = tt.expand_dims %2 {axis = 1 : i32} : tensor<32xi32> -> tensor<32x1xi32> loc(#loc10)
    %10 = tt.splat %8 : i32 -> tensor<32x1xi32> loc(#loc11)
    %11 = arith.addi %10, %9 : tensor<32x1xi32> loc(#loc11)
    %12 = arith.remsi %5, %cst_4 : tensor<1x32xi32> loc(#loc12)
    %13 = arith.divsi %5, %cst_4 : tensor<1x32xi32> loc(#loc13)
    %14 = arith.muli %11, %cst_3 : tensor<32x1xi32> loc(#loc14)
    %15 = tt.broadcast %12 : tensor<1x32xi32> -> tensor<32x32xi32> loc(#loc15)
    %16 = tt.broadcast %14 : tensor<32x1xi32> -> tensor<32x32xi32> loc(#loc15)
    %17 = arith.addi %15, %16 : tensor<32x32xi32> loc(#loc15)
    %18 = arith.muli %13, %cst_2 : tensor<1x32xi32> loc(#loc16)
    %19 = tt.broadcast %18 : tensor<1x32xi32> -> tensor<32x32xi32> loc(#loc17)
    %20 = arith.addi %17, %19 : tensor<32x32xi32> loc(#loc17)
    %21 = tt.splat %arg0 : !tt.ptr<f32> -> tensor<32x32x!tt.ptr<f32>> loc(#loc18)
    %22 = tt.addptr %21, %20 : tensor<32x32x!tt.ptr<f32>>, tensor<32x32xi32> loc(#loc18)
    %23 = tt.broadcast %6 : tensor<1x32xi1> -> tensor<32x32xi1> loc(#loc19)
    %24 = tt.load %22, %23 evictionPolicy = evict_last : tensor<32x32x!tt.ptr<f32>> loc(#loc19)
    %25 = arith.divf %24, %cst_1 : tensor<32x32xf32> loc(#loc20)
    %26 = arith.addf %25, %cst_0 : tensor<32x32xf32> loc(#loc21)
    %27 = tt.extern_elementwise %26 {libname = "", libpath = "", pure = true, symbol = "__nv_rsqrtf"} : (tensor<32x32xf32>) -> tensor<32x32xf32> loc(#loc22)
    %28 = arith.muli %5, %cst : tensor<1x32xi32> loc(#loc23)
    %29 = tt.broadcast %11 : tensor<32x1xi32> -> tensor<32x32xi32> loc(#loc24)
    %30 = tt.broadcast %28 : tensor<1x32xi32> -> tensor<32x32xi32> loc(#loc24)
    %31 = arith.addi %29, %30 : tensor<32x32xi32> loc(#loc24)
    %32 = tt.splat %arg1 : !tt.ptr<f32> -> tensor<32x32x!tt.ptr<f32>> loc(#loc25)
    %33 = tt.addptr %32, %31 : tensor<32x32x!tt.ptr<f32>>, tensor<32x32xi32> loc(#loc25)
    tt.store %33, %27, %23 : tensor<32x32x!tt.ptr<f32>> loc(#loc26)
    tt.return loc(#loc27)
  } loc(#loc)
} loc(#loc)
#loc1 = loc(unknown)
#loc2 = loc("results/my_experiment/torchinductor_cache_0/mw/cmwm4kicj7tjyyjbnw7cxp3ihh5ufsdkf6cllsq4da6nxolxyxqn.py":21:28)
#loc3 = loc("results/my_experiment/torchinductor_cache_0/mw/cmwm4kicj7tjyyjbnw7cxp3ihh5ufsdkf6cllsq4da6nxolxyxqn.py":21:33)
#loc4 = loc("results/my_experiment/torchinductor_cache_0/mw/cmwm4kicj7tjyyjbnw7cxp3ihh5ufsdkf6cllsq4da6nxolxyxqn.py":22:36)
#loc5 = loc("results/my_experiment/torchinductor_cache_0/mw/cmwm4kicj7tjyyjbnw7cxp3ihh5ufsdkf6cllsq4da6nxolxyxqn.py":22:44)
#loc6 = loc("results/my_experiment/torchinductor_cache_0/mw/cmwm4kicj7tjyyjbnw7cxp3ihh5ufsdkf6cllsq4da6nxolxyxqn.py":22:23)
#loc7 = loc("results/my_experiment/torchinductor_cache_0/mw/cmwm4kicj7tjyyjbnw7cxp3ihh5ufsdkf6cllsq4da6nxolxyxqn.py":23:21)
#loc8 = loc("results/my_experiment/torchinductor_cache_0/mw/cmwm4kicj7tjyyjbnw7cxp3ihh5ufsdkf6cllsq4da6nxolxyxqn.py":24:28)
#loc9 = loc("results/my_experiment/torchinductor_cache_0/mw/cmwm4kicj7tjyyjbnw7cxp3ihh5ufsdkf6cllsq4da6nxolxyxqn.py":24:33)
#loc10 = loc("results/my_experiment/torchinductor_cache_0/mw/cmwm4kicj7tjyyjbnw7cxp3ihh5ufsdkf6cllsq4da6nxolxyxqn.py":25:44)
#loc11 = loc("results/my_experiment/torchinductor_cache_0/mw/cmwm4kicj7tjyyjbnw7cxp3ihh5ufsdkf6cllsq4da6nxolxyxqn.py":25:23)
#loc12 = loc("results/my_experiment/torchinductor_cache_0/mw/cmwm4kicj7tjyyjbnw7cxp3ihh5ufsdkf6cllsq4da6nxolxyxqn.py":28:19)
#loc13 = loc("results/my_experiment/torchinductor_cache_0/mw/cmwm4kicj7tjyyjbnw7cxp3ihh5ufsdkf6cllsq4da6nxolxyxqn.py":29:19)
#loc14 = loc("results/my_experiment/torchinductor_cache_0/mw/cmwm4kicj7tjyyjbnw7cxp3ihh5ufsdkf6cllsq4da6nxolxyxqn.py":31:38)
#loc15 = loc("results/my_experiment/torchinductor_cache_0/mw/cmwm4kicj7tjyyjbnw7cxp3ihh5ufsdkf6cllsq4da6nxolxyxqn.py":31:35)
#loc16 = loc("results/my_experiment/torchinductor_cache_0/mw/cmwm4kicj7tjyyjbnw7cxp3ihh5ufsdkf6cllsq4da6nxolxyxqn.py":31:49)
#loc17 = loc("results/my_experiment/torchinductor_cache_0/mw/cmwm4kicj7tjyyjbnw7cxp3ihh5ufsdkf6cllsq4da6nxolxyxqn.py":31:43)
#loc18 = loc("results/my_experiment/torchinductor_cache_0/mw/cmwm4kicj7tjyyjbnw7cxp3ihh5ufsdkf6cllsq4da6nxolxyxqn.py":31:30)
#loc19 = loc("results/my_experiment/torchinductor_cache_0/mw/cmwm4kicj7tjyyjbnw7cxp3ihh5ufsdkf6cllsq4da6nxolxyxqn.py":31:54)
#loc20 = loc("results/my_experiment/torchinductor_cache_0/mw/cmwm4kicj7tjyyjbnw7cxp3ihh5ufsdkf6cllsq4da6nxolxyxqn.py":33:19)
#loc21 = loc("results/my_experiment/torchinductor_cache_0/mw/cmwm4kicj7tjyyjbnw7cxp3ihh5ufsdkf6cllsq4da6nxolxyxqn.py":35:18)
#loc22 = loc("results/my_experiment/torchinductor_cache_0/mw/cmwm4kicj7tjyyjbnw7cxp3ihh5ufsdkf6cllsq4da6nxolxyxqn.py":36:27)
#loc23 = loc("results/my_experiment/torchinductor_cache_0/mw/cmwm4kicj7tjyyjbnw7cxp3ihh5ufsdkf6cllsq4da6nxolxyxqn.py":37:35)
#loc24 = loc("results/my_experiment/torchinductor_cache_0/mw/cmwm4kicj7tjyyjbnw7cxp3ihh5ufsdkf6cllsq4da6nxolxyxqn.py":37:30)
#loc25 = loc("results/my_experiment/torchinductor_cache_0/mw/cmwm4kicj7tjyyjbnw7cxp3ihh5ufsdkf6cllsq4da6nxolxyxqn.py":37:25)
#loc26 = loc("results/my_experiment/torchinductor_cache_0/mw/cmwm4kicj7tjyyjbnw7cxp3ihh5ufsdkf6cllsq4da6nxolxyxqn.py":37:46)
#loc27 = loc("results/my_experiment/torchinductor_cache_0/mw/cmwm4kicj7tjyyjbnw7cxp3ihh5ufsdkf6cllsq4da6nxolxyxqn.py":37:4)
