#loc = loc("results/my_experiment/torchinductor_cache_0/gf/cgfjm42laeaoj4cpqfxnca3ef7j3z3hblhuvtvnxmkgslsgra3ma.py":18:0)
#loc1 = loc(unknown)
#loc18 = loc("results/my_experiment/torchinductor_cache_0/gf/cgfjm42laeaoj4cpqfxnca3ef7j3z3hblhuvtvnxmkgslsgra3ma.py":41:24)
#loc28 = loc(callsite(#loc1 at #loc18))
module {
  tt.func public @triton_per_fused__to_copy_mean_pow_3(%arg0: !tt.ptr<bf16> {tt.divisibility = 16 : i32} loc("results/my_experiment/torchinductor_cache_0/gf/cgfjm42laeaoj4cpqfxnca3ef7j3z3hblhuvtvnxmkgslsgra3ma.py":18:0), %arg1: !tt.ptr<f32> {tt.divisibility = 16 : i32} loc("results/my_experiment/torchinductor_cache_0/gf/cgfjm42laeaoj4cpqfxnca3ef7j3z3hblhuvtvnxmkgslsgra3ma.py":18:0), %arg2: i32 {tt.divisibility = 16 : i32} loc("results/my_experiment/torchinductor_cache_0/gf/cgfjm42laeaoj4cpqfxnca3ef7j3z3hblhuvtvnxmkgslsgra3ma.py":18:0), %arg3: i32 {tt.divisibility = 16 : i32} loc("results/my_experiment/torchinductor_cache_0/gf/cgfjm42laeaoj4cpqfxnca3ef7j3z3hblhuvtvnxmkgslsgra3ma.py":18:0)) attributes {noinline = false} {
    %c2304_i32 = arith.constant 2304 : i32 loc(#loc1)
    %c64_i32 = arith.constant 64 : i32 loc(#loc1)
    %c12_i32 = arith.constant 12 : i32 loc(#loc1)
    %c6144_i32 = arith.constant 6144 : i32 loc(#loc1)
    %cst = arith.constant dense<0.000000e+00> : tensor<1x64xbf16> loc(#loc1)
    %cst_0 = arith.constant dense<0.000000e+00> : tensor<1x64xf32> loc(#loc1)
    %0 = tt.get_program_id x : i32 loc(#loc2)
    %1 = arith.cmpi slt, %0, %c6144_i32 : i32 loc(#loc3)
    %2 = tt.splat %1 : i1 -> tensor<1x1xi1> loc(#loc3)
    %3 = tt.make_range {end = 64 : i32, start = 0 : i32} : tensor<64xi32> loc(#loc4)
    %4 = tt.expand_dims %3 {axis = 0 : i32} : tensor<64xi32> -> tensor<1x64xi32> loc(#loc5)
    %5 = arith.remsi %0, %c12_i32 : i32 loc(#loc6)
    %6 = arith.divsi %0, %c12_i32 : i32 loc(#loc7)
    %7 = arith.muli %5, %c64_i32 : i32 loc(#loc8)
    %8 = tt.splat %7 : i32 -> tensor<1x64xi32> loc(#loc24)
    %9 = arith.addi %4, %8 : tensor<1x64xi32> loc(#loc9)
    %10 = arith.muli %6, %c2304_i32 : i32 loc(#loc10)
    %11 = tt.splat %10 : i32 -> tensor<1x64xi32> loc(#loc25)
    %12 = arith.addi %9, %11 : tensor<1x64xi32> loc(#loc11)
    %13 = tt.splat %arg0 : !tt.ptr<bf16> -> tensor<1x64x!tt.ptr<bf16>> loc(#loc12)
    %14 = tt.addptr %13, %12 : tensor<1x64x!tt.ptr<bf16>>, tensor<1x64xi32> loc(#loc12)
    %15 = tt.splat %1 : i1 -> tensor<1x64xi1> loc(#loc26)
    %16 = tt.load %14, %15, %cst : tensor<1x64x!tt.ptr<bf16>> loc(#loc13)
    %17 = arith.extf %16 : tensor<1x64xbf16> to tensor<1x64xf32> loc(#loc14)
    %18 = arith.mulf %17, %17 : tensor<1x64xf32> loc(#loc15)
    %19 = arith.select %15, %18, %cst_0 : tensor<1x64xi1>, tensor<1x64xf32> loc(#loc16)
    %20 = "tt.reduce"(%19) <{axis = 1 : i32}> ({
    ^bb0(%arg4: f32 loc(callsite(#loc1 at #loc18)), %arg5: f32 loc(callsite(#loc1 at #loc18))):
      %24 = arith.addf %arg4, %arg5 : f32 loc(#loc30)
      tt.reduce.return %24 : f32 loc(#loc27)
    }) : (tensor<1x64xf32>) -> tensor<1xf32> loc(#loc27)
    %21 = tt.expand_dims %20 {axis = 1 : i32} : tensor<1xf32> -> tensor<1x1xf32> loc(#loc20)
    %22 = tt.addptr %arg1, %0 : !tt.ptr<f32>, i32 loc(#loc21)
    %23 = tt.splat %22 : !tt.ptr<f32> -> tensor<1x1x!tt.ptr<f32>> loc(#loc21)
    tt.store %23, %21, %2 : tensor<1x1x!tt.ptr<f32>> loc(#loc22)
    tt.return loc(#loc23)
  } loc(#loc)
} loc(#loc)
#loc2 = loc("results/my_experiment/torchinductor_cache_0/gf/cgfjm42laeaoj4cpqfxnca3ef7j3z3hblhuvtvnxmkgslsgra3ma.py":24:28)
#loc3 = loc("results/my_experiment/torchinductor_cache_0/gf/cgfjm42laeaoj4cpqfxnca3ef7j3z3hblhuvtvnxmkgslsgra3ma.py":26:21)
#loc4 = loc("results/my_experiment/torchinductor_cache_0/gf/cgfjm42laeaoj4cpqfxnca3ef7j3z3hblhuvtvnxmkgslsgra3ma.py":27:28)
#loc5 = loc("results/my_experiment/torchinductor_cache_0/gf/cgfjm42laeaoj4cpqfxnca3ef7j3z3hblhuvtvnxmkgslsgra3ma.py":27:38)
#loc6 = loc("results/my_experiment/torchinductor_cache_0/gf/cgfjm42laeaoj4cpqfxnca3ef7j3z3hblhuvtvnxmkgslsgra3ma.py":33:19)
#loc7 = loc("results/my_experiment/torchinductor_cache_0/gf/cgfjm42laeaoj4cpqfxnca3ef7j3z3hblhuvtvnxmkgslsgra3ma.py":34:19)
#loc8 = loc("results/my_experiment/torchinductor_cache_0/gf/cgfjm42laeaoj4cpqfxnca3ef7j3z3hblhuvtvnxmkgslsgra3ma.py":36:40)
#loc9 = loc("results/my_experiment/torchinductor_cache_0/gf/cgfjm42laeaoj4cpqfxnca3ef7j3z3hblhuvtvnxmkgslsgra3ma.py":36:37)
#loc10 = loc("results/my_experiment/torchinductor_cache_0/gf/cgfjm42laeaoj4cpqfxnca3ef7j3z3hblhuvtvnxmkgslsgra3ma.py":36:50)
#loc11 = loc("results/my_experiment/torchinductor_cache_0/gf/cgfjm42laeaoj4cpqfxnca3ef7j3z3hblhuvtvnxmkgslsgra3ma.py":36:45)
#loc12 = loc("results/my_experiment/torchinductor_cache_0/gf/cgfjm42laeaoj4cpqfxnca3ef7j3z3hblhuvtvnxmkgslsgra3ma.py":36:30)
#loc13 = loc("results/my_experiment/torchinductor_cache_0/gf/cgfjm42laeaoj4cpqfxnca3ef7j3z3hblhuvtvnxmkgslsgra3ma.py":36:55)
#loc14 = loc("results/my_experiment/torchinductor_cache_0/gf/cgfjm42laeaoj4cpqfxnca3ef7j3z3hblhuvtvnxmkgslsgra3ma.py":36:76)
#loc15 = loc("results/my_experiment/torchinductor_cache_0/gf/cgfjm42laeaoj4cpqfxnca3ef7j3z3hblhuvtvnxmkgslsgra3ma.py":38:18)
#loc16 = loc("results/my_experiment/torchinductor_cache_0/gf/cgfjm42laeaoj4cpqfxnca3ef7j3z3hblhuvtvnxmkgslsgra3ma.py":40:33)
#loc17 = loc("/home/utka/proj/evs/vlm/lib/python3.12/site-packages/triton/language/standard.py":286:36)
#loc19 = loc("/home/utka/proj/evs/vlm/lib/python3.12/site-packages/triton/language/standard.py":256:15)
#loc20 = loc("results/my_experiment/torchinductor_cache_0/gf/cgfjm42laeaoj4cpqfxnca3ef7j3z3hblhuvtvnxmkgslsgra3ma.py":41:27)
#loc21 = loc("results/my_experiment/torchinductor_cache_0/gf/cgfjm42laeaoj4cpqfxnca3ef7j3z3hblhuvtvnxmkgslsgra3ma.py":42:25)
#loc22 = loc("results/my_experiment/torchinductor_cache_0/gf/cgfjm42laeaoj4cpqfxnca3ef7j3z3hblhuvtvnxmkgslsgra3ma.py":42:36)
#loc23 = loc("results/my_experiment/torchinductor_cache_0/gf/cgfjm42laeaoj4cpqfxnca3ef7j3z3hblhuvtvnxmkgslsgra3ma.py":42:4)
#loc24 = loc(fused[#loc9, #loc8])
#loc25 = loc(fused[#loc11, #loc10])
#loc26 = loc(fused[#loc13, #loc3])
#loc27 = loc(callsite(#loc17 at #loc18))
#loc29 = loc(callsite(#loc19 at #loc17))
#loc30 = loc(callsite(#loc29 at #loc18))
