#loc = loc("results/my_experiment/torchinductor_cache_0/gf/cgfjm42laeaoj4cpqfxnca3ef7j3z3hblhuvtvnxmkgslsgra3ma.py":18:0)
#loc1 = loc(unknown)
#loc22 = loc("results/my_experiment/torchinductor_cache_0/gf/cgfjm42laeaoj4cpqfxnca3ef7j3z3hblhuvtvnxmkgslsgra3ma.py":41:24)
#loc29 = loc(callsite(#loc1 at #loc22))
module {
  tt.func public @triton_per_fused__to_copy_mean_pow_3(%arg0: !tt.ptr<bf16> {tt.divisibility = 16 : i32} loc("results/my_experiment/torchinductor_cache_0/gf/cgfjm42laeaoj4cpqfxnca3ef7j3z3hblhuvtvnxmkgslsgra3ma.py":18:0), %arg1: !tt.ptr<f32> {tt.divisibility = 16 : i32} loc("results/my_experiment/torchinductor_cache_0/gf/cgfjm42laeaoj4cpqfxnca3ef7j3z3hblhuvtvnxmkgslsgra3ma.py":18:0), %arg2: i32 {tt.divisibility = 16 : i32} loc("results/my_experiment/torchinductor_cache_0/gf/cgfjm42laeaoj4cpqfxnca3ef7j3z3hblhuvtvnxmkgslsgra3ma.py":18:0), %arg3: i32 {tt.divisibility = 16 : i32} loc("results/my_experiment/torchinductor_cache_0/gf/cgfjm42laeaoj4cpqfxnca3ef7j3z3hblhuvtvnxmkgslsgra3ma.py":18:0)) attributes {noinline = false} {
    %cst = arith.constant dense<0.000000e+00> : tensor<8x64xbf16> loc(#loc1)
    %cst_0 = arith.constant dense<0.000000e+00> : tensor<8x64xf32> loc(#loc1)
    %cst_1 = arith.constant dense<2304> : tensor<8x1xi32> loc(#loc1)
    %cst_2 = arith.constant dense<64> : tensor<8x1xi32> loc(#loc1)
    %cst_3 = arith.constant dense<12> : tensor<8x1xi32> loc(#loc1)
    %cst_4 = arith.constant dense<6144> : tensor<8x1xi32> loc(#loc1)
    %c8_i32 = arith.constant 8 : i32 loc(#loc1)
    %0 = tt.get_program_id x : i32 loc(#loc2)
    %1 = arith.muli %0, %c8_i32 : i32 loc(#loc3)
    %2 = tt.make_range {end = 8 : i32, start = 0 : i32} : tensor<8xi32> loc(#loc4)
    %3 = tt.expand_dims %2 {axis = 1 : i32} : tensor<8xi32> -> tensor<8x1xi32> loc(#loc5)
    %4 = tt.splat %1 : i32 -> tensor<8x1xi32> loc(#loc6)
    %5 = arith.addi %4, %3 : tensor<8x1xi32> loc(#loc6)
    %6 = arith.cmpi slt, %5, %cst_4 : tensor<8x1xi32> loc(#loc7)
    %7 = tt.make_range {end = 64 : i32, start = 0 : i32} : tensor<64xi32> loc(#loc8)
    %8 = tt.expand_dims %7 {axis = 0 : i32} : tensor<64xi32> -> tensor<1x64xi32> loc(#loc9)
    %9 = arith.remsi %5, %cst_3 : tensor<8x1xi32> loc(#loc10)
    %10 = arith.divsi %5, %cst_3 : tensor<8x1xi32> loc(#loc11)
    %11 = arith.muli %9, %cst_2 : tensor<8x1xi32> loc(#loc12)
    %12 = tt.broadcast %8 : tensor<1x64xi32> -> tensor<8x64xi32> loc(#loc13)
    %13 = tt.broadcast %11 : tensor<8x1xi32> -> tensor<8x64xi32> loc(#loc13)
    %14 = arith.addi %12, %13 : tensor<8x64xi32> loc(#loc13)
    %15 = arith.muli %10, %cst_1 : tensor<8x1xi32> loc(#loc14)
    %16 = tt.broadcast %15 : tensor<8x1xi32> -> tensor<8x64xi32> loc(#loc15)
    %17 = arith.addi %14, %16 : tensor<8x64xi32> loc(#loc15)
    %18 = tt.splat %arg0 : !tt.ptr<bf16> -> tensor<8x64x!tt.ptr<bf16>> loc(#loc16)
    %19 = tt.addptr %18, %17 : tensor<8x64x!tt.ptr<bf16>>, tensor<8x64xi32> loc(#loc16)
    %20 = tt.broadcast %6 : tensor<8x1xi1> -> tensor<8x64xi1> loc(#loc17)
    %21 = tt.load %19, %20, %cst : tensor<8x64x!tt.ptr<bf16>> loc(#loc17)
    %22 = arith.extf %21 : tensor<8x64xbf16> to tensor<8x64xf32> loc(#loc18)
    %23 = arith.mulf %22, %22 : tensor<8x64xf32> loc(#loc19)
    %24 = arith.select %20, %23, %cst_0 : tensor<8x64xi1>, tensor<8x64xf32> loc(#loc20)
    %25 = "tt.reduce"(%24) <{axis = 1 : i32}> ({
    ^bb0(%arg4: f32 loc(callsite(#loc1 at #loc22)), %arg5: f32 loc(callsite(#loc1 at #loc22))):
      %29 = arith.addf %arg4, %arg5 : f32 loc(#loc31)
      tt.reduce.return %29 : f32 loc(#loc28)
    }) : (tensor<8x64xf32>) -> tensor<8xf32> loc(#loc28)
    %26 = tt.expand_dims %25 {axis = 1 : i32} : tensor<8xf32> -> tensor<8x1xf32> loc(#loc24)
    %27 = tt.splat %arg1 : !tt.ptr<f32> -> tensor<8x1x!tt.ptr<f32>> loc(#loc25)
    %28 = tt.addptr %27, %5 : tensor<8x1x!tt.ptr<f32>>, tensor<8x1xi32> loc(#loc25)
    tt.store %28, %26, %6 : tensor<8x1x!tt.ptr<f32>> loc(#loc26)
    tt.return loc(#loc27)
  } loc(#loc)
} loc(#loc)
#loc2 = loc("results/my_experiment/torchinductor_cache_0/gf/cgfjm42laeaoj4cpqfxnca3ef7j3z3hblhuvtvnxmkgslsgra3ma.py":24:28)
#loc3 = loc("results/my_experiment/torchinductor_cache_0/gf/cgfjm42laeaoj4cpqfxnca3ef7j3z3hblhuvtvnxmkgslsgra3ma.py":24:33)
#loc4 = loc("results/my_experiment/torchinductor_cache_0/gf/cgfjm42laeaoj4cpqfxnca3ef7j3z3hblhuvtvnxmkgslsgra3ma.py":25:36)
#loc5 = loc("results/my_experiment/torchinductor_cache_0/gf/cgfjm42laeaoj4cpqfxnca3ef7j3z3hblhuvtvnxmkgslsgra3ma.py":25:44)
#loc6 = loc("results/my_experiment/torchinductor_cache_0/gf/cgfjm42laeaoj4cpqfxnca3ef7j3z3hblhuvtvnxmkgslsgra3ma.py":25:23)
#loc7 = loc("results/my_experiment/torchinductor_cache_0/gf/cgfjm42laeaoj4cpqfxnca3ef7j3z3hblhuvtvnxmkgslsgra3ma.py":26:21)
#loc8 = loc("results/my_experiment/torchinductor_cache_0/gf/cgfjm42laeaoj4cpqfxnca3ef7j3z3hblhuvtvnxmkgslsgra3ma.py":27:28)
#loc9 = loc("results/my_experiment/torchinductor_cache_0/gf/cgfjm42laeaoj4cpqfxnca3ef7j3z3hblhuvtvnxmkgslsgra3ma.py":27:38)
#loc10 = loc("results/my_experiment/torchinductor_cache_0/gf/cgfjm42laeaoj4cpqfxnca3ef7j3z3hblhuvtvnxmkgslsgra3ma.py":33:19)
#loc11 = loc("results/my_experiment/torchinductor_cache_0/gf/cgfjm42laeaoj4cpqfxnca3ef7j3z3hblhuvtvnxmkgslsgra3ma.py":34:19)
#loc12 = loc("results/my_experiment/torchinductor_cache_0/gf/cgfjm42laeaoj4cpqfxnca3ef7j3z3hblhuvtvnxmkgslsgra3ma.py":36:40)
#loc13 = loc("results/my_experiment/torchinductor_cache_0/gf/cgfjm42laeaoj4cpqfxnca3ef7j3z3hblhuvtvnxmkgslsgra3ma.py":36:37)
#loc14 = loc("results/my_experiment/torchinductor_cache_0/gf/cgfjm42laeaoj4cpqfxnca3ef7j3z3hblhuvtvnxmkgslsgra3ma.py":36:50)
#loc15 = loc("results/my_experiment/torchinductor_cache_0/gf/cgfjm42laeaoj4cpqfxnca3ef7j3z3hblhuvtvnxmkgslsgra3ma.py":36:45)
#loc16 = loc("results/my_experiment/torchinductor_cache_0/gf/cgfjm42laeaoj4cpqfxnca3ef7j3z3hblhuvtvnxmkgslsgra3ma.py":36:30)
#loc17 = loc("results/my_experiment/torchinductor_cache_0/gf/cgfjm42laeaoj4cpqfxnca3ef7j3z3hblhuvtvnxmkgslsgra3ma.py":36:55)
#loc18 = loc("results/my_experiment/torchinductor_cache_0/gf/cgfjm42laeaoj4cpqfxnca3ef7j3z3hblhuvtvnxmkgslsgra3ma.py":36:76)
#loc19 = loc("results/my_experiment/torchinductor_cache_0/gf/cgfjm42laeaoj4cpqfxnca3ef7j3z3hblhuvtvnxmkgslsgra3ma.py":38:18)
#loc20 = loc("results/my_experiment/torchinductor_cache_0/gf/cgfjm42laeaoj4cpqfxnca3ef7j3z3hblhuvtvnxmkgslsgra3ma.py":40:33)
#loc21 = loc("/home/utka/proj/evs/vlm/lib/python3.12/site-packages/triton/language/standard.py":286:36)
#loc23 = loc("/home/utka/proj/evs/vlm/lib/python3.12/site-packages/triton/language/standard.py":256:15)
#loc24 = loc("results/my_experiment/torchinductor_cache_0/gf/cgfjm42laeaoj4cpqfxnca3ef7j3z3hblhuvtvnxmkgslsgra3ma.py":41:27)
#loc25 = loc("results/my_experiment/torchinductor_cache_0/gf/cgfjm42laeaoj4cpqfxnca3ef7j3z3hblhuvtvnxmkgslsgra3ma.py":42:25)
#loc26 = loc("results/my_experiment/torchinductor_cache_0/gf/cgfjm42laeaoj4cpqfxnca3ef7j3z3hblhuvtvnxmkgslsgra3ma.py":42:36)
#loc27 = loc("results/my_experiment/torchinductor_cache_0/gf/cgfjm42laeaoj4cpqfxnca3ef7j3z3hblhuvtvnxmkgslsgra3ma.py":42:4)
#loc28 = loc(callsite(#loc21 at #loc22))
#loc30 = loc(callsite(#loc23 at #loc21))
#loc31 = loc(callsite(#loc30 at #loc22))
