#loc = loc("results/my_experiment/torchinductor_cache_0/yb/cyb2yahvfl6c44hweyawksxv444ozpddetjb4zchmnm2ugugjuo7.py":18:0)
module {
  tt.func public @triton_poi_fused_clone_15(%arg0: !tt.ptr<bf16> {tt.divisibility = 16 : i32} loc("results/my_experiment/torchinductor_cache_0/yb/cyb2yahvfl6c44hweyawksxv444ozpddetjb4zchmnm2ugugjuo7.py":18:0), %arg1: !tt.ptr<bf16> {tt.divisibility = 16 : i32} loc("results/my_experiment/torchinductor_cache_0/yb/cyb2yahvfl6c44hweyawksxv444ozpddetjb4zchmnm2ugugjuo7.py":18:0), %arg2: i32 {tt.divisibility = 16 : i32} loc("results/my_experiment/torchinductor_cache_0/yb/cyb2yahvfl6c44hweyawksxv444ozpddetjb4zchmnm2ugugjuo7.py":18:0)) attributes {noinline = false} {
    %cst = arith.constant dense<3342336> : tensor<512xi32> loc(#loc1)
    %cst_0 = arith.constant dense<278528> : tensor<512xi32> loc(#loc1)
    %cst_1 = arith.constant dense<64> : tensor<512xi32> loc(#loc1)
    %cst_2 = arith.constant dense<196608> : tensor<512xi32> loc(#loc1)
    %cst_3 = arith.constant dense<256> : tensor<512xi32> loc(#loc1)
    %cst_4 = arith.constant dense<768> : tensor<512xi32> loc(#loc1)
    %c512_i32 = arith.constant 512 : i32 loc(#loc1)
    %0 = tt.get_program_id x : i32 loc(#loc2)
    %1 = arith.muli %0, %c512_i32 : i32 loc(#loc3)
    %2 = tt.make_range {end = 512 : i32, start = 0 : i32} : tensor<512xi32> loc(#loc4)
    %3 = tt.splat %1 : i32 -> tensor<512xi32> loc(#loc5)
    %4 = arith.addi %3, %2 : tensor<512xi32> loc(#loc5)
    %5 = arith.remsi %4, %cst_4 : tensor<512xi32> loc(#loc6)
    %6 = arith.divsi %4, %cst_4 : tensor<512xi32> loc(#loc7)
    %7 = arith.remsi %6, %cst_3 : tensor<512xi32> loc(#loc8)
    %8 = arith.divsi %4, %cst_2 : tensor<512xi32> loc(#loc9)
    %9 = arith.muli %7, %cst_1 : tensor<512xi32> loc(#loc10)
    %10 = arith.divsi %5, %cst_1 : tensor<512xi32> loc(#loc11)
    %11 = arith.muli %10, %cst_0 : tensor<512xi32> loc(#loc12)
    %12 = arith.addi %9, %11 : tensor<512xi32> loc(#loc13)
    %13 = arith.muli %8, %cst : tensor<512xi32> loc(#loc14)
    %14 = arith.addi %12, %13 : tensor<512xi32> loc(#loc15)
    %15 = arith.remsi %5, %cst_1 : tensor<512xi32> loc(#loc16)
    %16 = arith.addi %14, %15 : tensor<512xi32> loc(#loc17)
    %17 = tt.splat %arg0 : !tt.ptr<bf16> -> tensor<512x!tt.ptr<bf16>> loc(#loc18)
    %18 = tt.addptr %17, %16 : tensor<512x!tt.ptr<bf16>>, tensor<512xi32> loc(#loc18)
    %19 = tt.load %18 : tensor<512x!tt.ptr<bf16>> loc(#loc19)
    %20 = arith.extf %19 : tensor<512xbf16> to tensor<512xf32> loc(#loc20)
    %21 = tt.splat %arg1 : !tt.ptr<bf16> -> tensor<512x!tt.ptr<bf16>> loc(#loc21)
    %22 = tt.addptr %21, %4 : tensor<512x!tt.ptr<bf16>>, tensor<512xi32> loc(#loc21)
    %23 = arith.truncf %20 : tensor<512xf32> to tensor<512xbf16> loc(#loc22)
    tt.store %22, %23 : tensor<512x!tt.ptr<bf16>> loc(#loc22)
    tt.return loc(#loc23)
  } loc(#loc)
} loc(#loc)
#loc1 = loc(unknown)
#loc2 = loc("results/my_experiment/torchinductor_cache_0/yb/cyb2yahvfl6c44hweyawksxv444ozpddetjb4zchmnm2ugugjuo7.py":20:28)
#loc3 = loc("results/my_experiment/torchinductor_cache_0/yb/cyb2yahvfl6c44hweyawksxv444ozpddetjb4zchmnm2ugugjuo7.py":20:33)
#loc4 = loc("results/my_experiment/torchinductor_cache_0/yb/cyb2yahvfl6c44hweyawksxv444ozpddetjb4zchmnm2ugugjuo7.py":21:36)
#loc5 = loc("results/my_experiment/torchinductor_cache_0/yb/cyb2yahvfl6c44hweyawksxv444ozpddetjb4zchmnm2ugugjuo7.py":21:23)
#loc6 = loc("results/my_experiment/torchinductor_cache_0/yb/cyb2yahvfl6c44hweyawksxv444ozpddetjb4zchmnm2ugugjuo7.py":23:19)
#loc7 = loc("results/my_experiment/torchinductor_cache_0/yb/cyb2yahvfl6c44hweyawksxv444ozpddetjb4zchmnm2ugugjuo7.py":24:21)
#loc8 = loc("results/my_experiment/torchinductor_cache_0/yb/cyb2yahvfl6c44hweyawksxv444ozpddetjb4zchmnm2ugugjuo7.py":24:28)
#loc9 = loc("results/my_experiment/torchinductor_cache_0/yb/cyb2yahvfl6c44hweyawksxv444ozpddetjb4zchmnm2ugugjuo7.py":25:19)
#loc10 = loc("results/my_experiment/torchinductor_cache_0/yb/cyb2yahvfl6c44hweyawksxv444ozpddetjb4zchmnm2ugugjuo7.py":27:33)
#loc11 = loc("results/my_experiment/torchinductor_cache_0/yb/cyb2yahvfl6c44hweyawksxv444ozpddetjb4zchmnm2ugugjuo7.py":27:52)
#loc12 = loc("results/my_experiment/torchinductor_cache_0/yb/cyb2yahvfl6c44hweyawksxv444ozpddetjb4zchmnm2ugugjuo7.py":27:46)
#loc13 = loc("results/my_experiment/torchinductor_cache_0/yb/cyb2yahvfl6c44hweyawksxv444ozpddetjb4zchmnm2ugugjuo7.py":27:38)
#loc14 = loc("results/my_experiment/torchinductor_cache_0/yb/cyb2yahvfl6c44hweyawksxv444ozpddetjb4zchmnm2ugugjuo7.py":27:66)
#loc15 = loc("results/my_experiment/torchinductor_cache_0/yb/cyb2yahvfl6c44hweyawksxv444ozpddetjb4zchmnm2ugugjuo7.py":27:58)
#loc16 = loc("results/my_experiment/torchinductor_cache_0/yb/cyb2yahvfl6c44hweyawksxv444ozpddetjb4zchmnm2ugugjuo7.py":27:78)
#loc17 = loc("results/my_experiment/torchinductor_cache_0/yb/cyb2yahvfl6c44hweyawksxv444ozpddetjb4zchmnm2ugugjuo7.py":27:73)
#loc18 = loc("results/my_experiment/torchinductor_cache_0/yb/cyb2yahvfl6c44hweyawksxv444ozpddetjb4zchmnm2ugugjuo7.py":27:30)
#loc19 = loc("results/my_experiment/torchinductor_cache_0/yb/cyb2yahvfl6c44hweyawksxv444ozpddetjb4zchmnm2ugugjuo7.py":27:85)
#loc20 = loc("results/my_experiment/torchinductor_cache_0/yb/cyb2yahvfl6c44hweyawksxv444ozpddetjb4zchmnm2ugugjuo7.py":27:94)
#loc21 = loc("results/my_experiment/torchinductor_cache_0/yb/cyb2yahvfl6c44hweyawksxv444ozpddetjb4zchmnm2ugugjuo7.py":28:25)
#loc22 = loc("results/my_experiment/torchinductor_cache_0/yb/cyb2yahvfl6c44hweyawksxv444ozpddetjb4zchmnm2ugugjuo7.py":28:36)
#loc23 = loc("results/my_experiment/torchinductor_cache_0/yb/cyb2yahvfl6c44hweyawksxv444ozpddetjb4zchmnm2ugugjuo7.py":28:4)
