#loc = loc("results/my_experiment/torchinductor_cache_0/sx/csx4xk5b2z3osj2theivxgr52hc6r2e274t2hx3mv7akolyy3hpi.py":18:0)
#loc1 = loc(unknown)
#loc19 = loc("results/my_experiment/torchinductor_cache_0/sx/csx4xk5b2z3osj2theivxgr52hc6r2e274t2hx3mv7akolyy3hpi.py":44:25)
#loc28 = loc(callsite(#loc1 at #loc19))
module {
  tt.func public @triton_red_fused__to_copy_mean_pow_3(%arg0: !tt.ptr<bf16> {tt.divisibility = 16 : i32} loc("results/my_experiment/torchinductor_cache_0/sx/csx4xk5b2z3osj2theivxgr52hc6r2e274t2hx3mv7akolyy3hpi.py":18:0), %arg1: !tt.ptr<f32> {tt.divisibility = 16 : i32} loc("results/my_experiment/torchinductor_cache_0/sx/csx4xk5b2z3osj2theivxgr52hc6r2e274t2hx3mv7akolyy3hpi.py":18:0), %arg2: i32 {tt.divisibility = 16 : i32} loc("results/my_experiment/torchinductor_cache_0/sx/csx4xk5b2z3osj2theivxgr52hc6r2e274t2hx3mv7akolyy3hpi.py":18:0), %arg3: i32 {tt.divisibility = 16 : i32} loc("results/my_experiment/torchinductor_cache_0/sx/csx4xk5b2z3osj2theivxgr52hc6r2e274t2hx3mv7akolyy3hpi.py":18:0)) attributes {noinline = false} {
    %c3456_i32 = arith.constant 3456 : i32 loc(#loc1)
    %c96_i32 = arith.constant 96 : i32 loc(#loc1)
    %c12_i32 = arith.constant 12 : i32 loc(#loc1)
    %cst = arith.constant dense<0.000000e+00> : tensor<1x128xbf16> loc(#loc1)
    %cst_0 = arith.constant dense<96> : tensor<1x128xi32> loc(#loc1)
    %cst_1 = arith.constant dense<0.000000e+00> : tensor<1x128xf32> loc(#loc1)
    %0 = tt.get_program_id x : i32 loc(#loc2)
    %1 = tt.make_range {end = 128 : i32, start = 0 : i32} : tensor<128xi32> loc(#loc3)
    %2 = tt.expand_dims %1 {axis = 0 : i32} : tensor<128xi32> -> tensor<1x128xi32> loc(#loc4)
    %3 = arith.remsi %0, %c12_i32 : i32 loc(#loc5)
    %4 = arith.divsi %0, %c12_i32 : i32 loc(#loc6)
    %5 = arith.cmpi slt, %2, %cst_0 : tensor<1x128xi32> loc(#loc7)
    %6 = arith.muli %3, %c96_i32 : i32 loc(#loc8)
    %7 = tt.splat %6 : i32 -> tensor<1x128xi32> loc(#loc25)
    %8 = arith.addi %2, %7 : tensor<1x128xi32> loc(#loc9)
    %9 = arith.muli %4, %c3456_i32 : i32 loc(#loc10)
    %10 = tt.splat %9 : i32 -> tensor<1x128xi32> loc(#loc26)
    %11 = arith.addi %8, %10 : tensor<1x128xi32> loc(#loc11)
    %12 = tt.splat %arg0 : !tt.ptr<bf16> -> tensor<1x128x!tt.ptr<bf16>> loc(#loc12)
    %13 = tt.addptr %12, %11 : tensor<1x128x!tt.ptr<bf16>>, tensor<1x128xi32> loc(#loc12)
    %14 = tt.load %13, %5, %cst evictionPolicy = evict_first : tensor<1x128x!tt.ptr<bf16>> loc(#loc13)
    %15 = arith.extf %14 : tensor<1x128xbf16> to tensor<1x128xf32> loc(#loc14)
    %16 = arith.mulf %15, %15 : tensor<1x128xf32> loc(#loc15)
    %17 = arith.addf %16, %cst_1 : tensor<1x128xf32> loc(#loc16)
    %18 = arith.select %5, %17, %cst_1 : tensor<1x128xi1>, tensor<1x128xf32> loc(#loc17)
    %19 = "tt.reduce"(%18) <{axis = 1 : i32}> ({
    ^bb0(%arg4: f32 loc(callsite(#loc1 at #loc19)), %arg5: f32 loc(callsite(#loc1 at #loc19))):
      %23 = arith.addf %arg4, %arg5 : f32 loc(#loc30)
      tt.reduce.return %23 : f32 loc(#loc27)
    }) : (tensor<1x128xf32>) -> tensor<1xf32> loc(#loc27)
    %20 = tt.expand_dims %19 {axis = 1 : i32} : tensor<1xf32> -> tensor<1x1xf32> loc(#loc21)
    %21 = tt.addptr %arg1, %0 : !tt.ptr<f32>, i32 loc(#loc22)
    %22 = tt.splat %21 : !tt.ptr<f32> -> tensor<1x1x!tt.ptr<f32>> loc(#loc22)
    tt.store %22, %20 : tensor<1x1x!tt.ptr<f32>> loc(#loc23)
    tt.return loc(#loc24)
  } loc(#loc)
} loc(#loc)
#loc2 = loc("results/my_experiment/torchinductor_cache_0/sx/csx4xk5b2z3osj2theivxgr52hc6r2e274t2hx3mv7akolyy3hpi.py":23:28)
#loc3 = loc("results/my_experiment/torchinductor_cache_0/sx/csx4xk5b2z3osj2theivxgr52hc6r2e274t2hx3mv7akolyy3hpi.py":26:27)
#loc4 = loc("results/my_experiment/torchinductor_cache_0/sx/csx4xk5b2z3osj2theivxgr52hc6r2e274t2hx3mv7akolyy3hpi.py":26:37)
#loc5 = loc("results/my_experiment/torchinductor_cache_0/sx/csx4xk5b2z3osj2theivxgr52hc6r2e274t2hx3mv7akolyy3hpi.py":28:19)
#loc6 = loc("results/my_experiment/torchinductor_cache_0/sx/csx4xk5b2z3osj2theivxgr52hc6r2e274t2hx3mv7akolyy3hpi.py":29:19)
#loc7 = loc("results/my_experiment/torchinductor_cache_0/sx/csx4xk5b2z3osj2theivxgr52hc6r2e274t2hx3mv7akolyy3hpi.py":34:29)
#loc8 = loc("results/my_experiment/torchinductor_cache_0/sx/csx4xk5b2z3osj2theivxgr52hc6r2e274t2hx3mv7akolyy3hpi.py":38:44)
#loc9 = loc("results/my_experiment/torchinductor_cache_0/sx/csx4xk5b2z3osj2theivxgr52hc6r2e274t2hx3mv7akolyy3hpi.py":38:41)
#loc10 = loc("results/my_experiment/torchinductor_cache_0/sx/csx4xk5b2z3osj2theivxgr52hc6r2e274t2hx3mv7akolyy3hpi.py":38:54)
#loc11 = loc("results/my_experiment/torchinductor_cache_0/sx/csx4xk5b2z3osj2theivxgr52hc6r2e274t2hx3mv7akolyy3hpi.py":38:49)
#loc12 = loc("results/my_experiment/torchinductor_cache_0/sx/csx4xk5b2z3osj2theivxgr52hc6r2e274t2hx3mv7akolyy3hpi.py":38:34)
#loc13 = loc("results/my_experiment/torchinductor_cache_0/sx/csx4xk5b2z3osj2theivxgr52hc6r2e274t2hx3mv7akolyy3hpi.py":38:59)
#loc14 = loc("results/my_experiment/torchinductor_cache_0/sx/csx4xk5b2z3osj2theivxgr52hc6r2e274t2hx3mv7akolyy3hpi.py":38:113)
#loc15 = loc("results/my_experiment/torchinductor_cache_0/sx/csx4xk5b2z3osj2theivxgr52hc6r2e274t2hx3mv7akolyy3hpi.py":40:22)
#loc16 = loc("results/my_experiment/torchinductor_cache_0/sx/csx4xk5b2z3osj2theivxgr52hc6r2e274t2hx3mv7akolyy3hpi.py":42:23)
#loc17 = loc("results/my_experiment/torchinductor_cache_0/sx/csx4xk5b2z3osj2theivxgr52hc6r2e274t2hx3mv7akolyy3hpi.py":43:40)
#loc18 = loc("/home/utka/proj/evs/vlm/lib/python3.12/site-packages/triton/language/standard.py":286:36)
#loc20 = loc("/home/utka/proj/evs/vlm/lib/python3.12/site-packages/triton/language/standard.py":256:15)
#loc21 = loc("results/my_experiment/torchinductor_cache_0/sx/csx4xk5b2z3osj2theivxgr52hc6r2e274t2hx3mv7akolyy3hpi.py":44:28)
#loc22 = loc("results/my_experiment/torchinductor_cache_0/sx/csx4xk5b2z3osj2theivxgr52hc6r2e274t2hx3mv7akolyy3hpi.py":45:25)
#loc23 = loc("results/my_experiment/torchinductor_cache_0/sx/csx4xk5b2z3osj2theivxgr52hc6r2e274t2hx3mv7akolyy3hpi.py":45:36)
#loc24 = loc("results/my_experiment/torchinductor_cache_0/sx/csx4xk5b2z3osj2theivxgr52hc6r2e274t2hx3mv7akolyy3hpi.py":45:4)
#loc25 = loc(fused[#loc9, #loc8])
#loc26 = loc(fused[#loc11, #loc10])
#loc27 = loc(callsite(#loc18 at #loc19))
#loc29 = loc(callsite(#loc20 at #loc18))
#loc30 = loc(callsite(#loc29 at #loc19))
