#loc = loc("results/my_experiment/torchinductor_cache_0/hr/chrbvl7g2n7cvsyakcevlv4mrjhpagkbg62wdsvnqd4aiox3r22m.py":18:0)
module {
  tt.func public @triton_poi_fused_clone_1(%arg0: !tt.ptr<bf16> {tt.divisibility = 16 : i32} loc("results/my_experiment/torchinductor_cache_0/hr/chrbvl7g2n7cvsyakcevlv4mrjhpagkbg62wdsvnqd4aiox3r22m.py":18:0), %arg1: !tt.ptr<bf16> {tt.divisibility = 16 : i32} loc("results/my_experiment/torchinductor_cache_0/hr/chrbvl7g2n7cvsyakcevlv4mrjhpagkbg62wdsvnqd4aiox3r22m.py":18:0), %arg2: i32 {tt.divisibility = 16 : i32} loc("results/my_experiment/torchinductor_cache_0/hr/chrbvl7g2n7cvsyakcevlv4mrjhpagkbg62wdsvnqd4aiox3r22m.py":18:0)) attributes {noinline = false} {
    %cst = arith.constant dense<5013504> : tensor<512xi32> loc(#loc1)
    %cst_0 = arith.constant dense<294912> : tensor<512xi32> loc(#loc1)
    %c512_i32 = arith.constant 512 : i32 loc(#loc1)
    %0 = tt.get_program_id x : i32 loc(#loc2)
    %1 = arith.muli %0, %c512_i32 : i32 loc(#loc3)
    %2 = tt.make_range {end = 512 : i32, start = 0 : i32} : tensor<512xi32> loc(#loc4)
    %3 = tt.splat %1 : i32 -> tensor<512xi32> loc(#loc5)
    %4 = arith.addi %3, %2 : tensor<512xi32> loc(#loc5)
    %5 = arith.remsi %4, %cst_0 : tensor<512xi32> loc(#loc6)
    %6 = arith.divsi %4, %cst_0 : tensor<512xi32> loc(#loc7)
    %7 = arith.muli %6, %cst : tensor<512xi32> loc(#loc8)
    %8 = arith.addi %5, %7 : tensor<512xi32> loc(#loc9)
    %9 = tt.splat %arg0 : !tt.ptr<bf16> -> tensor<512x!tt.ptr<bf16>> loc(#loc10)
    %10 = tt.addptr %9, %8 : tensor<512x!tt.ptr<bf16>>, tensor<512xi32> loc(#loc10)
    %11 = tt.load %10 : tensor<512x!tt.ptr<bf16>> loc(#loc11)
    %12 = arith.extf %11 : tensor<512xbf16> to tensor<512xf32> loc(#loc12)
    %13 = tt.splat %arg1 : !tt.ptr<bf16> -> tensor<512x!tt.ptr<bf16>> loc(#loc13)
    %14 = tt.addptr %13, %4 : tensor<512x!tt.ptr<bf16>>, tensor<512xi32> loc(#loc13)
    %15 = arith.truncf %12 : tensor<512xf32> to tensor<512xbf16> loc(#loc14)
    tt.store %14, %15 : tensor<512x!tt.ptr<bf16>> loc(#loc14)
    tt.return loc(#loc15)
  } loc(#loc)
} loc(#loc)
#loc1 = loc(unknown)
#loc2 = loc("results/my_experiment/torchinductor_cache_0/hr/chrbvl7g2n7cvsyakcevlv4mrjhpagkbg62wdsvnqd4aiox3r22m.py":20:28)
#loc3 = loc("results/my_experiment/torchinductor_cache_0/hr/chrbvl7g2n7cvsyakcevlv4mrjhpagkbg62wdsvnqd4aiox3r22m.py":20:33)
#loc4 = loc("results/my_experiment/torchinductor_cache_0/hr/chrbvl7g2n7cvsyakcevlv4mrjhpagkbg62wdsvnqd4aiox3r22m.py":21:36)
#loc5 = loc("results/my_experiment/torchinductor_cache_0/hr/chrbvl7g2n7cvsyakcevlv4mrjhpagkbg62wdsvnqd4aiox3r22m.py":21:23)
#loc6 = loc("results/my_experiment/torchinductor_cache_0/hr/chrbvl7g2n7cvsyakcevlv4mrjhpagkbg62wdsvnqd4aiox3r22m.py":23:19)
#loc7 = loc("results/my_experiment/torchinductor_cache_0/hr/chrbvl7g2n7cvsyakcevlv4mrjhpagkbg62wdsvnqd4aiox3r22m.py":24:19)
#loc8 = loc("results/my_experiment/torchinductor_cache_0/hr/chrbvl7g2n7cvsyakcevlv4mrjhpagkbg62wdsvnqd4aiox3r22m.py":26:43)
#loc9 = loc("results/my_experiment/torchinductor_cache_0/hr/chrbvl7g2n7cvsyakcevlv4mrjhpagkbg62wdsvnqd4aiox3r22m.py":26:35)
#loc10 = loc("results/my_experiment/torchinductor_cache_0/hr/chrbvl7g2n7cvsyakcevlv4mrjhpagkbg62wdsvnqd4aiox3r22m.py":26:30)
#loc11 = loc("results/my_experiment/torchinductor_cache_0/hr/chrbvl7g2n7cvsyakcevlv4mrjhpagkbg62wdsvnqd4aiox3r22m.py":26:48)
#loc12 = loc("results/my_experiment/torchinductor_cache_0/hr/chrbvl7g2n7cvsyakcevlv4mrjhpagkbg62wdsvnqd4aiox3r22m.py":26:57)
#loc13 = loc("results/my_experiment/torchinductor_cache_0/hr/chrbvl7g2n7cvsyakcevlv4mrjhpagkbg62wdsvnqd4aiox3r22m.py":27:25)
#loc14 = loc("results/my_experiment/torchinductor_cache_0/hr/chrbvl7g2n7cvsyakcevlv4mrjhpagkbg62wdsvnqd4aiox3r22m.py":27:36)
#loc15 = loc("results/my_experiment/torchinductor_cache_0/hr/chrbvl7g2n7cvsyakcevlv4mrjhpagkbg62wdsvnqd4aiox3r22m.py":27:4)
