#loc = loc("results/my_experiment/torchinductor_cache_0/br/cbr2pyufmiotx2bpli76valxj6nz64qb4wbync5oyugk5nrhlqm5.py":18:0)
module {
  tt.func public @triton_poi_fused__to_copy_add_mean_pow_rsqrt_8(%arg0: !tt.ptr<f32> {tt.divisibility = 16 : i32} loc("results/my_experiment/torchinductor_cache_0/br/cbr2pyufmiotx2bpli76valxj6nz64qb4wbync5oyugk5nrhlqm5.py":18:0), %arg1: !tt.ptr<f32> {tt.divisibility = 16 : i32} loc("results/my_experiment/torchinductor_cache_0/br/cbr2pyufmiotx2bpli76valxj6nz64qb4wbync5oyugk5nrhlqm5.py":18:0), %arg2: i32 loc("results/my_experiment/torchinductor_cache_0/br/cbr2pyufmiotx2bpli76valxj6nz64qb4wbync5oyugk5nrhlqm5.py":18:0), %arg3: i32 {tt.divisibility = 16 : i32} loc("results/my_experiment/torchinductor_cache_0/br/cbr2pyufmiotx2bpli76valxj6nz64qb4wbync5oyugk5nrhlqm5.py":18:0)) attributes {noinline = false} {
    %cst = arith.constant dense<256> : tensor<1x32xi32> loc(#loc1)
    %cst_0 = arith.constant dense<9.99999997E-7> : tensor<32x32xf32> loc(#loc1)
    %cst_1 = arith.constant dense<9.600000e+01> : tensor<32x32xf32> loc(#loc1)
    %cst_2 = arith.constant dense<3072> : tensor<1x32xi32> loc(#loc1)
    %cst_3 = arith.constant dense<12> : tensor<32x1xi32> loc(#loc1)
    %cst_4 = arith.constant dense<12> : tensor<1x32xi32> loc(#loc1)
    %cst_5 = arith.constant dense<256> : tensor<32x1xi32> loc(#loc1)
    %cst_6 = arith.constant dense<24> : tensor<1x32xi32> loc(#loc1)
    %c32_i32 = arith.constant 32 : i32 loc(#loc1)
    %0 = tt.get_program_id y : i32 loc(#loc2)
    %1 = arith.muli %0, %c32_i32 : i32 loc(#loc3)
    %2 = tt.make_range {end = 32 : i32, start = 0 : i32} : tensor<32xi32> loc(#loc4)
    %3 = tt.expand_dims %2 {axis = 0 : i32} : tensor<32xi32> -> tensor<1x32xi32> loc(#loc5)
    %4 = tt.splat %1 : i32 -> tensor<1x32xi32> loc(#loc6)
    %5 = arith.addi %4, %3 : tensor<1x32xi32> loc(#loc6)
    %6 = arith.cmpi slt, %5, %cst_6 : tensor<1x32xi32> loc(#loc7)
    %7 = tt.get_program_id x : i32 loc(#loc8)
    %8 = arith.muli %7, %c32_i32 : i32 loc(#loc9)
    %9 = tt.expand_dims %2 {axis = 1 : i32} : tensor<32xi32> -> tensor<32x1xi32> loc(#loc10)
    %10 = tt.splat %8 : i32 -> tensor<32x1xi32> loc(#loc11)
    %11 = arith.addi %10, %9 : tensor<32x1xi32> loc(#loc11)
    %12 = arith.cmpi slt, %11, %cst_5 : tensor<32x1xi32> loc(#loc12)
    %13 = arith.remsi %5, %cst_4 : tensor<1x32xi32> loc(#loc13)
    %14 = arith.divsi %5, %cst_4 : tensor<1x32xi32> loc(#loc14)
    %15 = arith.muli %11, %cst_3 : tensor<32x1xi32> loc(#loc15)
    %16 = tt.broadcast %13 : tensor<1x32xi32> -> tensor<32x32xi32> loc(#loc16)
    %17 = tt.broadcast %15 : tensor<32x1xi32> -> tensor<32x32xi32> loc(#loc16)
    %18 = arith.addi %16, %17 : tensor<32x32xi32> loc(#loc16)
    %19 = arith.muli %14, %cst_2 : tensor<1x32xi32> loc(#loc17)
    %20 = tt.broadcast %19 : tensor<1x32xi32> -> tensor<32x32xi32> loc(#loc18)
    %21 = arith.addi %18, %20 : tensor<32x32xi32> loc(#loc18)
    %22 = tt.splat %arg0 : !tt.ptr<f32> -> tensor<32x32x!tt.ptr<f32>> loc(#loc19)
    %23 = tt.addptr %22, %21 : tensor<32x32x!tt.ptr<f32>>, tensor<32x32xi32> loc(#loc19)
    %24 = tt.broadcast %6 : tensor<1x32xi1> -> tensor<32x32xi1> loc(#loc20)
    %25 = tt.broadcast %12 : tensor<32x1xi1> -> tensor<32x32xi1> loc(#loc20)
    %26 = arith.andi %24, %25 : tensor<32x32xi1> loc(#loc20)
    %27 = tt.load %23, %26 evictionPolicy = evict_last : tensor<32x32x!tt.ptr<f32>> loc(#loc21)
    %28 = arith.divf %27, %cst_1 : tensor<32x32xf32> loc(#loc22)
    %29 = arith.addf %28, %cst_0 : tensor<32x32xf32> loc(#loc23)
    %30 = tt.extern_elementwise %29 {libname = "", libpath = "", pure = true, symbol = "__nv_rsqrtf"} : (tensor<32x32xf32>) -> tensor<32x32xf32> loc(#loc24)
    %31 = arith.muli %5, %cst : tensor<1x32xi32> loc(#loc25)
    %32 = tt.broadcast %11 : tensor<32x1xi32> -> tensor<32x32xi32> loc(#loc26)
    %33 = tt.broadcast %31 : tensor<1x32xi32> -> tensor<32x32xi32> loc(#loc26)
    %34 = arith.addi %32, %33 : tensor<32x32xi32> loc(#loc26)
    %35 = tt.splat %arg1 : !tt.ptr<f32> -> tensor<32x32x!tt.ptr<f32>> loc(#loc27)
    %36 = tt.addptr %35, %34 : tensor<32x32x!tt.ptr<f32>>, tensor<32x32xi32> loc(#loc27)
    tt.store %36, %30, %26 : tensor<32x32x!tt.ptr<f32>> loc(#loc28)
    tt.return loc(#loc29)
  } loc(#loc)
} loc(#loc)
#loc1 = loc(unknown)
#loc2 = loc("results/my_experiment/torchinductor_cache_0/br/cbr2pyufmiotx2bpli76valxj6nz64qb4wbync5oyugk5nrhlqm5.py":21:28)
#loc3 = loc("results/my_experiment/torchinductor_cache_0/br/cbr2pyufmiotx2bpli76valxj6nz64qb4wbync5oyugk5nrhlqm5.py":21:33)
#loc4 = loc("results/my_experiment/torchinductor_cache_0/br/cbr2pyufmiotx2bpli76valxj6nz64qb4wbync5oyugk5nrhlqm5.py":22:36)
#loc5 = loc("results/my_experiment/torchinductor_cache_0/br/cbr2pyufmiotx2bpli76valxj6nz64qb4wbync5oyugk5nrhlqm5.py":22:44)
#loc6 = loc("results/my_experiment/torchinductor_cache_0/br/cbr2pyufmiotx2bpli76valxj6nz64qb4wbync5oyugk5nrhlqm5.py":22:23)
#loc7 = loc("results/my_experiment/torchinductor_cache_0/br/cbr2pyufmiotx2bpli76valxj6nz64qb4wbync5oyugk5nrhlqm5.py":23:21)
#loc8 = loc("results/my_experiment/torchinductor_cache_0/br/cbr2pyufmiotx2bpli76valxj6nz64qb4wbync5oyugk5nrhlqm5.py":24:28)
#loc9 = loc("results/my_experiment/torchinductor_cache_0/br/cbr2pyufmiotx2bpli76valxj6nz64qb4wbync5oyugk5nrhlqm5.py":24:33)
#loc10 = loc("results/my_experiment/torchinductor_cache_0/br/cbr2pyufmiotx2bpli76valxj6nz64qb4wbync5oyugk5nrhlqm5.py":25:44)
#loc11 = loc("results/my_experiment/torchinductor_cache_0/br/cbr2pyufmiotx2bpli76valxj6nz64qb4wbync5oyugk5nrhlqm5.py":25:23)
#loc12 = loc("results/my_experiment/torchinductor_cache_0/br/cbr2pyufmiotx2bpli76valxj6nz64qb4wbync5oyugk5nrhlqm5.py":26:21)
#loc13 = loc("results/my_experiment/torchinductor_cache_0/br/cbr2pyufmiotx2bpli76valxj6nz64qb4wbync5oyugk5nrhlqm5.py":28:19)
#loc14 = loc("results/my_experiment/torchinductor_cache_0/br/cbr2pyufmiotx2bpli76valxj6nz64qb4wbync5oyugk5nrhlqm5.py":29:19)
#loc15 = loc("results/my_experiment/torchinductor_cache_0/br/cbr2pyufmiotx2bpli76valxj6nz64qb4wbync5oyugk5nrhlqm5.py":31:38)
#loc16 = loc("results/my_experiment/torchinductor_cache_0/br/cbr2pyufmiotx2bpli76valxj6nz64qb4wbync5oyugk5nrhlqm5.py":31:35)
#loc17 = loc("results/my_experiment/torchinductor_cache_0/br/cbr2pyufmiotx2bpli76valxj6nz64qb4wbync5oyugk5nrhlqm5.py":31:48)
#loc18 = loc("results/my_experiment/torchinductor_cache_0/br/cbr2pyufmiotx2bpli76valxj6nz64qb4wbync5oyugk5nrhlqm5.py":31:43)
#loc19 = loc("results/my_experiment/torchinductor_cache_0/br/cbr2pyufmiotx2bpli76valxj6nz64qb4wbync5oyugk5nrhlqm5.py":31:30)
#loc20 = loc("results/my_experiment/torchinductor_cache_0/br/cbr2pyufmiotx2bpli76valxj6nz64qb4wbync5oyugk5nrhlqm5.py":31:61)
#loc21 = loc("results/my_experiment/torchinductor_cache_0/br/cbr2pyufmiotx2bpli76valxj6nz64qb4wbync5oyugk5nrhlqm5.py":31:53)
#loc22 = loc("results/my_experiment/torchinductor_cache_0/br/cbr2pyufmiotx2bpli76valxj6nz64qb4wbync5oyugk5nrhlqm5.py":33:19)
#loc23 = loc("results/my_experiment/torchinductor_cache_0/br/cbr2pyufmiotx2bpli76valxj6nz64qb4wbync5oyugk5nrhlqm5.py":35:18)
#loc24 = loc("results/my_experiment/torchinductor_cache_0/br/cbr2pyufmiotx2bpli76valxj6nz64qb4wbync5oyugk5nrhlqm5.py":36:27)
#loc25 = loc("results/my_experiment/torchinductor_cache_0/br/cbr2pyufmiotx2bpli76valxj6nz64qb4wbync5oyugk5nrhlqm5.py":37:34)
#loc26 = loc("results/my_experiment/torchinductor_cache_0/br/cbr2pyufmiotx2bpli76valxj6nz64qb4wbync5oyugk5nrhlqm5.py":37:30)
#loc27 = loc("results/my_experiment/torchinductor_cache_0/br/cbr2pyufmiotx2bpli76valxj6nz64qb4wbync5oyugk5nrhlqm5.py":37:25)
#loc28 = loc("results/my_experiment/torchinductor_cache_0/br/cbr2pyufmiotx2bpli76valxj6nz64qb4wbync5oyugk5nrhlqm5.py":37:45)
#loc29 = loc("results/my_experiment/torchinductor_cache_0/br/cbr2pyufmiotx2bpli76valxj6nz64qb4wbync5oyugk5nrhlqm5.py":37:4)
