#loc = loc("results/my_experiment/torchinductor_cache_0/w5/cw5c63ao47uclrfu6sys6njqgggnesydycf5czkao4qgrqodimvn.py":18:0)
#loc1 = loc(unknown)
#loc16 = loc("results/my_experiment/torchinductor_cache_0/w5/cw5c63ao47uclrfu6sys6njqgggnesydycf5czkao4qgrqodimvn.py":40:24)
#loc25 = loc(callsite(#loc1 at #loc16))
module {
  tt.func public @triton_per_fused__to_copy_mean_pow_8(%arg0: !tt.ptr<bf16> {tt.divisibility = 16 : i32} loc("results/my_experiment/torchinductor_cache_0/w5/cw5c63ao47uclrfu6sys6njqgggnesydycf5czkao4qgrqodimvn.py":18:0), %arg1: !tt.ptr<f32> {tt.divisibility = 16 : i32} loc("results/my_experiment/torchinductor_cache_0/w5/cw5c63ao47uclrfu6sys6njqgggnesydycf5czkao4qgrqodimvn.py":18:0), %arg2: i32 {tt.divisibility = 16 : i32} loc("results/my_experiment/torchinductor_cache_0/w5/cw5c63ao47uclrfu6sys6njqgggnesydycf5czkao4qgrqodimvn.py":18:0), %arg3: i32 {tt.divisibility = 16 : i32} loc("results/my_experiment/torchinductor_cache_0/w5/cw5c63ao47uclrfu6sys6njqgggnesydycf5czkao4qgrqodimvn.py":18:0)) attributes {noinline = false} {
    %c2304_i32 = arith.constant 2304 : i32 loc(#loc1)
    %c64_i32 = arith.constant 64 : i32 loc(#loc1)
    %c12_i32 = arith.constant 12 : i32 loc(#loc1)
    %0 = tt.get_program_id x : i32 loc(#loc2)
    %1 = tt.make_range {end = 64 : i32, start = 0 : i32} : tensor<64xi32> loc(#loc3)
    %2 = tt.expand_dims %1 {axis = 0 : i32} : tensor<64xi32> -> tensor<1x64xi32> loc(#loc4)
    %3 = arith.remsi %0, %c12_i32 : i32 loc(#loc5)
    %4 = arith.divsi %0, %c12_i32 : i32 loc(#loc6)
    %5 = arith.muli %3, %c64_i32 : i32 loc(#loc7)
    %6 = tt.splat %5 : i32 -> tensor<1x64xi32> loc(#loc22)
    %7 = arith.addi %2, %6 : tensor<1x64xi32> loc(#loc8)
    %8 = arith.muli %4, %c2304_i32 : i32 loc(#loc9)
    %9 = tt.splat %8 : i32 -> tensor<1x64xi32> loc(#loc23)
    %10 = arith.addi %7, %9 : tensor<1x64xi32> loc(#loc10)
    %11 = tt.splat %arg0 : !tt.ptr<bf16> -> tensor<1x64x!tt.ptr<bf16>> loc(#loc11)
    %12 = tt.addptr %11, %10 : tensor<1x64x!tt.ptr<bf16>>, tensor<1x64xi32> loc(#loc11)
    %13 = tt.load %12 : tensor<1x64x!tt.ptr<bf16>> loc(#loc12)
    %14 = arith.extf %13 : tensor<1x64xbf16> to tensor<1x64xf32> loc(#loc13)
    %15 = arith.mulf %14, %14 : tensor<1x64xf32> loc(#loc14)
    %16 = "tt.reduce"(%15) <{axis = 1 : i32}> ({
    ^bb0(%arg4: f32 loc(callsite(#loc1 at #loc16)), %arg5: f32 loc(callsite(#loc1 at #loc16))):
      %20 = arith.addf %arg4, %arg5 : f32 loc(#loc27)
      tt.reduce.return %20 : f32 loc(#loc24)
    }) : (tensor<1x64xf32>) -> tensor<1xf32> loc(#loc24)
    %17 = tt.expand_dims %16 {axis = 1 : i32} : tensor<1xf32> -> tensor<1x1xf32> loc(#loc18)
    %18 = tt.addptr %arg1, %0 : !tt.ptr<f32>, i32 loc(#loc19)
    %19 = tt.splat %18 : !tt.ptr<f32> -> tensor<1x1x!tt.ptr<f32>> loc(#loc19)
    tt.store %19, %17 : tensor<1x1x!tt.ptr<f32>> loc(#loc20)
    tt.return loc(#loc21)
  } loc(#loc)
} loc(#loc)
#loc2 = loc("results/my_experiment/torchinductor_cache_0/w5/cw5c63ao47uclrfu6sys6njqgggnesydycf5czkao4qgrqodimvn.py":24:28)
#loc3 = loc("results/my_experiment/torchinductor_cache_0/w5/cw5c63ao47uclrfu6sys6njqgggnesydycf5czkao4qgrqodimvn.py":27:28)
#loc4 = loc("results/my_experiment/torchinductor_cache_0/w5/cw5c63ao47uclrfu6sys6njqgggnesydycf5czkao4qgrqodimvn.py":27:38)
#loc5 = loc("results/my_experiment/torchinductor_cache_0/w5/cw5c63ao47uclrfu6sys6njqgggnesydycf5czkao4qgrqodimvn.py":33:19)
#loc6 = loc("results/my_experiment/torchinductor_cache_0/w5/cw5c63ao47uclrfu6sys6njqgggnesydycf5czkao4qgrqodimvn.py":34:19)
#loc7 = loc("results/my_experiment/torchinductor_cache_0/w5/cw5c63ao47uclrfu6sys6njqgggnesydycf5czkao4qgrqodimvn.py":36:40)
#loc8 = loc("results/my_experiment/torchinductor_cache_0/w5/cw5c63ao47uclrfu6sys6njqgggnesydycf5czkao4qgrqodimvn.py":36:37)
#loc9 = loc("results/my_experiment/torchinductor_cache_0/w5/cw5c63ao47uclrfu6sys6njqgggnesydycf5czkao4qgrqodimvn.py":36:50)
#loc10 = loc("results/my_experiment/torchinductor_cache_0/w5/cw5c63ao47uclrfu6sys6njqgggnesydycf5czkao4qgrqodimvn.py":36:45)
#loc11 = loc("results/my_experiment/torchinductor_cache_0/w5/cw5c63ao47uclrfu6sys6njqgggnesydycf5czkao4qgrqodimvn.py":36:30)
#loc12 = loc("results/my_experiment/torchinductor_cache_0/w5/cw5c63ao47uclrfu6sys6njqgggnesydycf5czkao4qgrqodimvn.py":36:55)
#loc13 = loc("results/my_experiment/torchinductor_cache_0/w5/cw5c63ao47uclrfu6sys6njqgggnesydycf5czkao4qgrqodimvn.py":36:64)
#loc14 = loc("results/my_experiment/torchinductor_cache_0/w5/cw5c63ao47uclrfu6sys6njqgggnesydycf5czkao4qgrqodimvn.py":38:18)
#loc15 = loc("/home/utka/proj/evs/vlm/lib/python3.12/site-packages/triton/language/standard.py":286:36)
#loc17 = loc("/home/utka/proj/evs/vlm/lib/python3.12/site-packages/triton/language/standard.py":256:15)
#loc18 = loc("results/my_experiment/torchinductor_cache_0/w5/cw5c63ao47uclrfu6sys6njqgggnesydycf5czkao4qgrqodimvn.py":40:27)
#loc19 = loc("results/my_experiment/torchinductor_cache_0/w5/cw5c63ao47uclrfu6sys6njqgggnesydycf5czkao4qgrqodimvn.py":41:25)
#loc20 = loc("results/my_experiment/torchinductor_cache_0/w5/cw5c63ao47uclrfu6sys6njqgggnesydycf5czkao4qgrqodimvn.py":41:36)
#loc21 = loc("results/my_experiment/torchinductor_cache_0/w5/cw5c63ao47uclrfu6sys6njqgggnesydycf5czkao4qgrqodimvn.py":41:4)
#loc22 = loc(fused[#loc8, #loc7])
#loc23 = loc(fused[#loc10, #loc9])
#loc24 = loc(callsite(#loc15 at #loc16))
#loc26 = loc(callsite(#loc17 at #loc15))
#loc27 = loc(callsite(#loc26 at #loc16))
