#loc = loc("results/my_experiment/torchinductor_cache_0/5z/c5zuhqjw62zqwqut67rx5ngffugnllo24du3crqj3k54ag7nczyp.py":18:0)
#loc1 = loc(unknown)
#loc20 = loc("results/my_experiment/torchinductor_cache_0/5z/c5zuhqjw62zqwqut67rx5ngffugnllo24du3crqj3k54ag7nczyp.py":44:25)
#loc29 = loc(callsite(#loc1 at #loc20))
module {
  tt.func public @triton_red_fused__to_copy_mean_pow_5(%arg0: !tt.ptr<bf16> {tt.divisibility = 16 : i32} loc("results/my_experiment/torchinductor_cache_0/5z/c5zuhqjw62zqwqut67rx5ngffugnllo24du3crqj3k54ag7nczyp.py":18:0), %arg1: !tt.ptr<f32> {tt.divisibility = 16 : i32} loc("results/my_experiment/torchinductor_cache_0/5z/c5zuhqjw62zqwqut67rx5ngffugnllo24du3crqj3k54ag7nczyp.py":18:0), %arg2: i32 {tt.divisibility = 16 : i32} loc("results/my_experiment/torchinductor_cache_0/5z/c5zuhqjw62zqwqut67rx5ngffugnllo24du3crqj3k54ag7nczyp.py":18:0), %arg3: i32 {tt.divisibility = 16 : i32} loc("results/my_experiment/torchinductor_cache_0/5z/c5zuhqjw62zqwqut67rx5ngffugnllo24du3crqj3k54ag7nczyp.py":18:0)) attributes {noinline = false} {
    %c3456_i32 = arith.constant 3456 : i32 loc(#loc1)
    %c96_i32 = arith.constant 96 : i32 loc(#loc1)
    %c12_i32 = arith.constant 12 : i32 loc(#loc1)
    %cst = arith.constant dense<0.000000e+00> : tensor<1x128xbf16> loc(#loc1)
    %cst_0 = arith.constant dense<1152> : tensor<1x128xi32> loc(#loc1)
    %cst_1 = arith.constant dense<96> : tensor<1x128xi32> loc(#loc1)
    %cst_2 = arith.constant dense<0.000000e+00> : tensor<1x128xf32> loc(#loc1)
    %0 = tt.get_program_id x : i32 loc(#loc2)
    %1 = tt.make_range {end = 128 : i32, start = 0 : i32} : tensor<128xi32> loc(#loc3)
    %2 = tt.expand_dims %1 {axis = 0 : i32} : tensor<128xi32> -> tensor<1x128xi32> loc(#loc4)
    %3 = arith.remsi %0, %c12_i32 : i32 loc(#loc5)
    %4 = arith.divsi %0, %c12_i32 : i32 loc(#loc6)
    %5 = arith.cmpi slt, %2, %cst_1 : tensor<1x128xi32> loc(#loc7)
    %6 = arith.addi %2, %cst_0 : tensor<1x128xi32> loc(#loc8)
    %7 = arith.muli %3, %c96_i32 : i32 loc(#loc9)
    %8 = tt.splat %7 : i32 -> tensor<1x128xi32> loc(#loc26)
    %9 = arith.addi %6, %8 : tensor<1x128xi32> loc(#loc10)
    %10 = arith.muli %4, %c3456_i32 : i32 loc(#loc11)
    %11 = tt.splat %10 : i32 -> tensor<1x128xi32> loc(#loc27)
    %12 = arith.addi %9, %11 : tensor<1x128xi32> loc(#loc12)
    %13 = tt.splat %arg0 : !tt.ptr<bf16> -> tensor<1x128x!tt.ptr<bf16>> loc(#loc13)
    %14 = tt.addptr %13, %12 : tensor<1x128x!tt.ptr<bf16>>, tensor<1x128xi32> loc(#loc13)
    %15 = tt.load %14, %5, %cst evictionPolicy = evict_first : tensor<1x128x!tt.ptr<bf16>> loc(#loc14)
    %16 = arith.extf %15 : tensor<1x128xbf16> to tensor<1x128xf32> loc(#loc15)
    %17 = arith.mulf %16, %16 : tensor<1x128xf32> loc(#loc16)
    %18 = arith.addf %17, %cst_2 : tensor<1x128xf32> loc(#loc17)
    %19 = arith.select %5, %18, %cst_2 : tensor<1x128xi1>, tensor<1x128xf32> loc(#loc18)
    %20 = "tt.reduce"(%19) <{axis = 1 : i32}> ({
    ^bb0(%arg4: f32 loc(callsite(#loc1 at #loc20)), %arg5: f32 loc(callsite(#loc1 at #loc20))):
      %24 = arith.addf %arg4, %arg5 : f32 loc(#loc31)
      tt.reduce.return %24 : f32 loc(#loc28)
    }) : (tensor<1x128xf32>) -> tensor<1xf32> loc(#loc28)
    %21 = tt.expand_dims %20 {axis = 1 : i32} : tensor<1xf32> -> tensor<1x1xf32> loc(#loc22)
    %22 = tt.addptr %arg1, %0 : !tt.ptr<f32>, i32 loc(#loc23)
    %23 = tt.splat %22 : !tt.ptr<f32> -> tensor<1x1x!tt.ptr<f32>> loc(#loc23)
    tt.store %23, %21 : tensor<1x1x!tt.ptr<f32>> loc(#loc24)
    tt.return loc(#loc25)
  } loc(#loc)
} loc(#loc)
#loc2 = loc("results/my_experiment/torchinductor_cache_0/5z/c5zuhqjw62zqwqut67rx5ngffugnllo24du3crqj3k54ag7nczyp.py":23:28)
#loc3 = loc("results/my_experiment/torchinductor_cache_0/5z/c5zuhqjw62zqwqut67rx5ngffugnllo24du3crqj3k54ag7nczyp.py":26:27)
#loc4 = loc("results/my_experiment/torchinductor_cache_0/5z/c5zuhqjw62zqwqut67rx5ngffugnllo24du3crqj3k54ag7nczyp.py":26:37)
#loc5 = loc("results/my_experiment/torchinductor_cache_0/5z/c5zuhqjw62zqwqut67rx5ngffugnllo24du3crqj3k54ag7nczyp.py":28:19)
#loc6 = loc("results/my_experiment/torchinductor_cache_0/5z/c5zuhqjw62zqwqut67rx5ngffugnllo24du3crqj3k54ag7nczyp.py":29:19)
#loc7 = loc("results/my_experiment/torchinductor_cache_0/5z/c5zuhqjw62zqwqut67rx5ngffugnllo24du3crqj3k54ag7nczyp.py":34:29)
#loc8 = loc("results/my_experiment/torchinductor_cache_0/5z/c5zuhqjw62zqwqut67rx5ngffugnllo24du3crqj3k54ag7nczyp.py":38:41)
#loc9 = loc("results/my_experiment/torchinductor_cache_0/5z/c5zuhqjw62zqwqut67rx5ngffugnllo24du3crqj3k54ag7nczyp.py":38:51)
#loc10 = loc("results/my_experiment/torchinductor_cache_0/5z/c5zuhqjw62zqwqut67rx5ngffugnllo24du3crqj3k54ag7nczyp.py":38:48)
#loc11 = loc("results/my_experiment/torchinductor_cache_0/5z/c5zuhqjw62zqwqut67rx5ngffugnllo24du3crqj3k54ag7nczyp.py":38:61)
#loc12 = loc("results/my_experiment/torchinductor_cache_0/5z/c5zuhqjw62zqwqut67rx5ngffugnllo24du3crqj3k54ag7nczyp.py":38:56)
#loc13 = loc("results/my_experiment/torchinductor_cache_0/5z/c5zuhqjw62zqwqut67rx5ngffugnllo24du3crqj3k54ag7nczyp.py":38:34)
#loc14 = loc("results/my_experiment/torchinductor_cache_0/5z/c5zuhqjw62zqwqut67rx5ngffugnllo24du3crqj3k54ag7nczyp.py":38:66)
#loc15 = loc("results/my_experiment/torchinductor_cache_0/5z/c5zuhqjw62zqwqut67rx5ngffugnllo24du3crqj3k54ag7nczyp.py":38:120)
#loc16 = loc("results/my_experiment/torchinductor_cache_0/5z/c5zuhqjw62zqwqut67rx5ngffugnllo24du3crqj3k54ag7nczyp.py":40:22)
#loc17 = loc("results/my_experiment/torchinductor_cache_0/5z/c5zuhqjw62zqwqut67rx5ngffugnllo24du3crqj3k54ag7nczyp.py":42:23)
#loc18 = loc("results/my_experiment/torchinductor_cache_0/5z/c5zuhqjw62zqwqut67rx5ngffugnllo24du3crqj3k54ag7nczyp.py":43:40)
#loc19 = loc("/home/utka/proj/evs/vlm/lib/python3.12/site-packages/triton/language/standard.py":286:36)
#loc21 = loc("/home/utka/proj/evs/vlm/lib/python3.12/site-packages/triton/language/standard.py":256:15)
#loc22 = loc("results/my_experiment/torchinductor_cache_0/5z/c5zuhqjw62zqwqut67rx5ngffugnllo24du3crqj3k54ag7nczyp.py":44:28)
#loc23 = loc("results/my_experiment/torchinductor_cache_0/5z/c5zuhqjw62zqwqut67rx5ngffugnllo24du3crqj3k54ag7nczyp.py":45:25)
#loc24 = loc("results/my_experiment/torchinductor_cache_0/5z/c5zuhqjw62zqwqut67rx5ngffugnllo24du3crqj3k54ag7nczyp.py":45:36)
#loc25 = loc("results/my_experiment/torchinductor_cache_0/5z/c5zuhqjw62zqwqut67rx5ngffugnllo24du3crqj3k54ag7nczyp.py":45:4)
#loc26 = loc(fused[#loc10, #loc9])
#loc27 = loc(fused[#loc12, #loc11])
#loc28 = loc(callsite(#loc19 at #loc20))
#loc30 = loc(callsite(#loc21 at #loc19))
#loc31 = loc(callsite(#loc30 at #loc20))
