#loc = loc("results/my_experiment/torchinductor_cache_0/w5/cw5c63ao47uclrfu6sys6njqgggnesydycf5czkao4qgrqodimvn.py":18:0)
#loc1 = loc(unknown)
#loc20 = loc("results/my_experiment/torchinductor_cache_0/w5/cw5c63ao47uclrfu6sys6njqgggnesydycf5czkao4qgrqodimvn.py":40:24)
#loc27 = loc(callsite(#loc1 at #loc20))
module {
  tt.func public @triton_per_fused__to_copy_mean_pow_8(%arg0: !tt.ptr<bf16> {tt.divisibility = 16 : i32} loc("results/my_experiment/torchinductor_cache_0/w5/cw5c63ao47uclrfu6sys6njqgggnesydycf5czkao4qgrqodimvn.py":18:0), %arg1: !tt.ptr<f32> {tt.divisibility = 16 : i32} loc("results/my_experiment/torchinductor_cache_0/w5/cw5c63ao47uclrfu6sys6njqgggnesydycf5czkao4qgrqodimvn.py":18:0), %arg2: i32 {tt.divisibility = 16 : i32} loc("results/my_experiment/torchinductor_cache_0/w5/cw5c63ao47uclrfu6sys6njqgggnesydycf5czkao4qgrqodimvn.py":18:0), %arg3: i32 {tt.divisibility = 16 : i32} loc("results/my_experiment/torchinductor_cache_0/w5/cw5c63ao47uclrfu6sys6njqgggnesydycf5czkao4qgrqodimvn.py":18:0)) attributes {noinline = false} {
    %cst = arith.constant dense<2304> : tensor<32x1xi32> loc(#loc1)
    %cst_0 = arith.constant dense<64> : tensor<32x1xi32> loc(#loc1)
    %cst_1 = arith.constant dense<12> : tensor<32x1xi32> loc(#loc1)
    %c32_i32 = arith.constant 32 : i32 loc(#loc1)
    %0 = tt.get_program_id x : i32 loc(#loc2)
    %1 = arith.muli %0, %c32_i32 : i32 loc(#loc3)
    %2 = tt.make_range {end = 32 : i32, start = 0 : i32} : tensor<32xi32> loc(#loc4)
    %3 = tt.expand_dims %2 {axis = 1 : i32} : tensor<32xi32> -> tensor<32x1xi32> loc(#loc5)
    %4 = tt.splat %1 : i32 -> tensor<32x1xi32> loc(#loc6)
    %5 = arith.addi %4, %3 : tensor<32x1xi32> loc(#loc6)
    %6 = tt.make_range {end = 64 : i32, start = 0 : i32} : tensor<64xi32> loc(#loc7)
    %7 = tt.expand_dims %6 {axis = 0 : i32} : tensor<64xi32> -> tensor<1x64xi32> loc(#loc8)
    %8 = arith.remsi %5, %cst_1 : tensor<32x1xi32> loc(#loc9)
    %9 = arith.divsi %5, %cst_1 : tensor<32x1xi32> loc(#loc10)
    %10 = arith.muli %8, %cst_0 : tensor<32x1xi32> loc(#loc11)
    %11 = tt.broadcast %7 : tensor<1x64xi32> -> tensor<32x64xi32> loc(#loc12)
    %12 = tt.broadcast %10 : tensor<32x1xi32> -> tensor<32x64xi32> loc(#loc12)
    %13 = arith.addi %11, %12 : tensor<32x64xi32> loc(#loc12)
    %14 = arith.muli %9, %cst : tensor<32x1xi32> loc(#loc13)
    %15 = tt.broadcast %14 : tensor<32x1xi32> -> tensor<32x64xi32> loc(#loc14)
    %16 = arith.addi %13, %15 : tensor<32x64xi32> loc(#loc14)
    %17 = tt.splat %arg0 : !tt.ptr<bf16> -> tensor<32x64x!tt.ptr<bf16>> loc(#loc15)
    %18 = tt.addptr %17, %16 : tensor<32x64x!tt.ptr<bf16>>, tensor<32x64xi32> loc(#loc15)
    %19 = tt.load %18 : tensor<32x64x!tt.ptr<bf16>> loc(#loc16)
    %20 = arith.extf %19 : tensor<32x64xbf16> to tensor<32x64xf32> loc(#loc17)
    %21 = arith.mulf %20, %20 : tensor<32x64xf32> loc(#loc18)
    %22 = "tt.reduce"(%21) <{axis = 1 : i32}> ({
    ^bb0(%arg4: f32 loc(callsite(#loc1 at #loc20)), %arg5: f32 loc(callsite(#loc1 at #loc20))):
      %26 = arith.addf %arg4, %arg5 : f32 loc(#loc29)
      tt.reduce.return %26 : f32 loc(#loc26)
    }) : (tensor<32x64xf32>) -> tensor<32xf32> loc(#loc26)
    %23 = tt.expand_dims %22 {axis = 1 : i32} : tensor<32xf32> -> tensor<32x1xf32> loc(#loc22)
    %24 = tt.splat %arg1 : !tt.ptr<f32> -> tensor<32x1x!tt.ptr<f32>> loc(#loc23)
    %25 = tt.addptr %24, %5 : tensor<32x1x!tt.ptr<f32>>, tensor<32x1xi32> loc(#loc23)
    tt.store %25, %23 : tensor<32x1x!tt.ptr<f32>> loc(#loc24)
    tt.return loc(#loc25)
  } loc(#loc)
} loc(#loc)
#loc2 = loc("results/my_experiment/torchinductor_cache_0/w5/cw5c63ao47uclrfu6sys6njqgggnesydycf5czkao4qgrqodimvn.py":24:28)
#loc3 = loc("results/my_experiment/torchinductor_cache_0/w5/cw5c63ao47uclrfu6sys6njqgggnesydycf5czkao4qgrqodimvn.py":24:33)
#loc4 = loc("results/my_experiment/torchinductor_cache_0/w5/cw5c63ao47uclrfu6sys6njqgggnesydycf5czkao4qgrqodimvn.py":25:36)
#loc5 = loc("results/my_experiment/torchinductor_cache_0/w5/cw5c63ao47uclrfu6sys6njqgggnesydycf5czkao4qgrqodimvn.py":25:44)
#loc6 = loc("results/my_experiment/torchinductor_cache_0/w5/cw5c63ao47uclrfu6sys6njqgggnesydycf5czkao4qgrqodimvn.py":25:23)
#loc7 = loc("results/my_experiment/torchinductor_cache_0/w5/cw5c63ao47uclrfu6sys6njqgggnesydycf5czkao4qgrqodimvn.py":27:28)
#loc8 = loc("results/my_experiment/torchinductor_cache_0/w5/cw5c63ao47uclrfu6sys6njqgggnesydycf5czkao4qgrqodimvn.py":27:38)
#loc9 = loc("results/my_experiment/torchinductor_cache_0/w5/cw5c63ao47uclrfu6sys6njqgggnesydycf5czkao4qgrqodimvn.py":33:19)
#loc10 = loc("results/my_experiment/torchinductor_cache_0/w5/cw5c63ao47uclrfu6sys6njqgggnesydycf5czkao4qgrqodimvn.py":34:19)
#loc11 = loc("results/my_experiment/torchinductor_cache_0/w5/cw5c63ao47uclrfu6sys6njqgggnesydycf5czkao4qgrqodimvn.py":36:40)
#loc12 = loc("results/my_experiment/torchinductor_cache_0/w5/cw5c63ao47uclrfu6sys6njqgggnesydycf5czkao4qgrqodimvn.py":36:37)
#loc13 = loc("results/my_experiment/torchinductor_cache_0/w5/cw5c63ao47uclrfu6sys6njqgggnesydycf5czkao4qgrqodimvn.py":36:50)
#loc14 = loc("results/my_experiment/torchinductor_cache_0/w5/cw5c63ao47uclrfu6sys6njqgggnesydycf5czkao4qgrqodimvn.py":36:45)
#loc15 = loc("results/my_experiment/torchinductor_cache_0/w5/cw5c63ao47uclrfu6sys6njqgggnesydycf5czkao4qgrqodimvn.py":36:30)
#loc16 = loc("results/my_experiment/torchinductor_cache_0/w5/cw5c63ao47uclrfu6sys6njqgggnesydycf5czkao4qgrqodimvn.py":36:55)
#loc17 = loc("results/my_experiment/torchinductor_cache_0/w5/cw5c63ao47uclrfu6sys6njqgggnesydycf5czkao4qgrqodimvn.py":36:64)
#loc18 = loc("results/my_experiment/torchinductor_cache_0/w5/cw5c63ao47uclrfu6sys6njqgggnesydycf5czkao4qgrqodimvn.py":38:18)
#loc19 = loc("/home/utka/proj/evs/vlm/lib/python3.12/site-packages/triton/language/standard.py":286:36)
#loc21 = loc("/home/utka/proj/evs/vlm/lib/python3.12/site-packages/triton/language/standard.py":256:15)
#loc22 = loc("results/my_experiment/torchinductor_cache_0/w5/cw5c63ao47uclrfu6sys6njqgggnesydycf5czkao4qgrqodimvn.py":40:27)
#loc23 = loc("results/my_experiment/torchinductor_cache_0/w5/cw5c63ao47uclrfu6sys6njqgggnesydycf5czkao4qgrqodimvn.py":41:25)
#loc24 = loc("results/my_experiment/torchinductor_cache_0/w5/cw5c63ao47uclrfu6sys6njqgggnesydycf5czkao4qgrqodimvn.py":41:36)
#loc25 = loc("results/my_experiment/torchinductor_cache_0/w5/cw5c63ao47uclrfu6sys6njqgggnesydycf5czkao4qgrqodimvn.py":41:4)
#loc26 = loc(callsite(#loc19 at #loc20))
#loc28 = loc(callsite(#loc21 at #loc19))
#loc29 = loc(callsite(#loc28 at #loc20))
