#loc = loc("results/my_experiment/torchinductor_cache_0/js/cjshipzil5uhemv56hfqvcotini7ejzwb2teusbgrm5syzbzepye.py":18:0)
#loc1 = loc(unknown)
#loc19 = loc("results/my_experiment/torchinductor_cache_0/js/cjshipzil5uhemv56hfqvcotini7ejzwb2teusbgrm5syzbzepye.py":41:24)
#loc29 = loc(callsite(#loc1 at #loc19))
module {
  tt.func public @triton_per_fused__to_copy_mean_pow_5(%arg0: !tt.ptr<bf16> {tt.divisibility = 16 : i32} loc("results/my_experiment/torchinductor_cache_0/js/cjshipzil5uhemv56hfqvcotini7ejzwb2teusbgrm5syzbzepye.py":18:0), %arg1: !tt.ptr<f32> {tt.divisibility = 16 : i32} loc("results/my_experiment/torchinductor_cache_0/js/cjshipzil5uhemv56hfqvcotini7ejzwb2teusbgrm5syzbzepye.py":18:0), %arg2: i32 {tt.divisibility = 16 : i32} loc("results/my_experiment/torchinductor_cache_0/js/cjshipzil5uhemv56hfqvcotini7ejzwb2teusbgrm5syzbzepye.py":18:0), %arg3: i32 {tt.divisibility = 16 : i32} loc("results/my_experiment/torchinductor_cache_0/js/cjshipzil5uhemv56hfqvcotini7ejzwb2teusbgrm5syzbzepye.py":18:0)) attributes {noinline = false} {
    %c2304_i32 = arith.constant 2304 : i32 loc(#loc1)
    %c64_i32 = arith.constant 64 : i32 loc(#loc1)
    %c12_i32 = arith.constant 12 : i32 loc(#loc1)
    %c6144_i32 = arith.constant 6144 : i32 loc(#loc1)
    %cst = arith.constant dense<0.000000e+00> : tensor<1x64xbf16> loc(#loc1)
    %cst_0 = arith.constant dense<0.000000e+00> : tensor<1x64xf32> loc(#loc1)
    %cst_1 = arith.constant dense<768> : tensor<1x64xi32> loc(#loc1)
    %0 = tt.get_program_id x : i32 loc(#loc2)
    %1 = arith.cmpi slt, %0, %c6144_i32 : i32 loc(#loc3)
    %2 = tt.splat %1 : i1 -> tensor<1x1xi1> loc(#loc3)
    %3 = tt.make_range {end = 64 : i32, start = 0 : i32} : tensor<64xi32> loc(#loc4)
    %4 = tt.expand_dims %3 {axis = 0 : i32} : tensor<64xi32> -> tensor<1x64xi32> loc(#loc5)
    %5 = arith.remsi %0, %c12_i32 : i32 loc(#loc6)
    %6 = arith.divsi %0, %c12_i32 : i32 loc(#loc7)
    %7 = arith.addi %4, %cst_1 : tensor<1x64xi32> loc(#loc8)
    %8 = arith.muli %5, %c64_i32 : i32 loc(#loc9)
    %9 = tt.splat %8 : i32 -> tensor<1x64xi32> loc(#loc25)
    %10 = arith.addi %7, %9 : tensor<1x64xi32> loc(#loc10)
    %11 = arith.muli %6, %c2304_i32 : i32 loc(#loc11)
    %12 = tt.splat %11 : i32 -> tensor<1x64xi32> loc(#loc26)
    %13 = arith.addi %10, %12 : tensor<1x64xi32> loc(#loc12)
    %14 = tt.splat %arg0 : !tt.ptr<bf16> -> tensor<1x64x!tt.ptr<bf16>> loc(#loc13)
    %15 = tt.addptr %14, %13 : tensor<1x64x!tt.ptr<bf16>>, tensor<1x64xi32> loc(#loc13)
    %16 = tt.splat %1 : i1 -> tensor<1x64xi1> loc(#loc27)
    %17 = tt.load %15, %16, %cst : tensor<1x64x!tt.ptr<bf16>> loc(#loc14)
    %18 = arith.extf %17 : tensor<1x64xbf16> to tensor<1x64xf32> loc(#loc15)
    %19 = arith.mulf %18, %18 : tensor<1x64xf32> loc(#loc16)
    %20 = arith.select %16, %19, %cst_0 : tensor<1x64xi1>, tensor<1x64xf32> loc(#loc17)
    %21 = "tt.reduce"(%20) <{axis = 1 : i32}> ({
    ^bb0(%arg4: f32 loc(callsite(#loc1 at #loc19)), %arg5: f32 loc(callsite(#loc1 at #loc19))):
      %25 = arith.addf %arg4, %arg5 : f32 loc(#loc31)
      tt.reduce.return %25 : f32 loc(#loc28)
    }) : (tensor<1x64xf32>) -> tensor<1xf32> loc(#loc28)
    %22 = tt.expand_dims %21 {axis = 1 : i32} : tensor<1xf32> -> tensor<1x1xf32> loc(#loc21)
    %23 = tt.addptr %arg1, %0 : !tt.ptr<f32>, i32 loc(#loc22)
    %24 = tt.splat %23 : !tt.ptr<f32> -> tensor<1x1x!tt.ptr<f32>> loc(#loc22)
    tt.store %24, %22, %2 : tensor<1x1x!tt.ptr<f32>> loc(#loc23)
    tt.return loc(#loc24)
  } loc(#loc)
} loc(#loc)
#loc2 = loc("results/my_experiment/torchinductor_cache_0/js/cjshipzil5uhemv56hfqvcotini7ejzwb2teusbgrm5syzbzepye.py":24:28)
#loc3 = loc("results/my_experiment/torchinductor_cache_0/js/cjshipzil5uhemv56hfqvcotini7ejzwb2teusbgrm5syzbzepye.py":26:21)
#loc4 = loc("results/my_experiment/torchinductor_cache_0/js/cjshipzil5uhemv56hfqvcotini7ejzwb2teusbgrm5syzbzepye.py":27:28)
#loc5 = loc("results/my_experiment/torchinductor_cache_0/js/cjshipzil5uhemv56hfqvcotini7ejzwb2teusbgrm5syzbzepye.py":27:38)
#loc6 = loc("results/my_experiment/torchinductor_cache_0/js/cjshipzil5uhemv56hfqvcotini7ejzwb2teusbgrm5syzbzepye.py":33:19)
#loc7 = loc("results/my_experiment/torchinductor_cache_0/js/cjshipzil5uhemv56hfqvcotini7ejzwb2teusbgrm5syzbzepye.py":34:19)
#loc8 = loc("results/my_experiment/torchinductor_cache_0/js/cjshipzil5uhemv56hfqvcotini7ejzwb2teusbgrm5syzbzepye.py":36:36)
#loc9 = loc("results/my_experiment/torchinductor_cache_0/js/cjshipzil5uhemv56hfqvcotini7ejzwb2teusbgrm5syzbzepye.py":36:46)
#loc10 = loc("results/my_experiment/torchinductor_cache_0/js/cjshipzil5uhemv56hfqvcotini7ejzwb2teusbgrm5syzbzepye.py":36:43)
#loc11 = loc("results/my_experiment/torchinductor_cache_0/js/cjshipzil5uhemv56hfqvcotini7ejzwb2teusbgrm5syzbzepye.py":36:56)
#loc12 = loc("results/my_experiment/torchinductor_cache_0/js/cjshipzil5uhemv56hfqvcotini7ejzwb2teusbgrm5syzbzepye.py":36:51)
#loc13 = loc("results/my_experiment/torchinductor_cache_0/js/cjshipzil5uhemv56hfqvcotini7ejzwb2teusbgrm5syzbzepye.py":36:30)
#loc14 = loc("results/my_experiment/torchinductor_cache_0/js/cjshipzil5uhemv56hfqvcotini7ejzwb2teusbgrm5syzbzepye.py":36:61)
#loc15 = loc("results/my_experiment/torchinductor_cache_0/js/cjshipzil5uhemv56hfqvcotini7ejzwb2teusbgrm5syzbzepye.py":36:82)
#loc16 = loc("results/my_experiment/torchinductor_cache_0/js/cjshipzil5uhemv56hfqvcotini7ejzwb2teusbgrm5syzbzepye.py":38:18)
#loc17 = loc("results/my_experiment/torchinductor_cache_0/js/cjshipzil5uhemv56hfqvcotini7ejzwb2teusbgrm5syzbzepye.py":40:33)
#loc18 = loc("/home/utka/proj/evs/vlm/lib/python3.12/site-packages/triton/language/standard.py":286:36)
#loc20 = loc("/home/utka/proj/evs/vlm/lib/python3.12/site-packages/triton/language/standard.py":256:15)
#loc21 = loc("results/my_experiment/torchinductor_cache_0/js/cjshipzil5uhemv56hfqvcotini7ejzwb2teusbgrm5syzbzepye.py":41:27)
#loc22 = loc("results/my_experiment/torchinductor_cache_0/js/cjshipzil5uhemv56hfqvcotini7ejzwb2teusbgrm5syzbzepye.py":42:25)
#loc23 = loc("results/my_experiment/torchinductor_cache_0/js/cjshipzil5uhemv56hfqvcotini7ejzwb2teusbgrm5syzbzepye.py":42:36)
#loc24 = loc("results/my_experiment/torchinductor_cache_0/js/cjshipzil5uhemv56hfqvcotini7ejzwb2teusbgrm5syzbzepye.py":42:4)
#loc25 = loc(fused[#loc10, #loc9])
#loc26 = loc(fused[#loc12, #loc11])
#loc27 = loc(fused[#loc14, #loc3])
#loc28 = loc(callsite(#loc18 at #loc19))
#loc30 = loc(callsite(#loc20 at #loc18))
#loc31 = loc(callsite(#loc30 at #loc19))
