#loc = loc("results/my_experiment/torchinductor_cache_0/sx/csx4xk5b2z3osj2theivxgr52hc6r2e274t2hx3mv7akolyy3hpi.py":18:0)
#loc1 = loc(unknown)
#loc25 = loc("results/my_experiment/torchinductor_cache_0/sx/csx4xk5b2z3osj2theivxgr52hc6r2e274t2hx3mv7akolyy3hpi.py":44:25)
#loc32 = loc(callsite(#loc1 at #loc25))
module {
  tt.func public @triton_red_fused__to_copy_mean_pow_3(%arg0: !tt.ptr<bf16> {tt.divisibility = 16 : i32} loc("results/my_experiment/torchinductor_cache_0/sx/csx4xk5b2z3osj2theivxgr52hc6r2e274t2hx3mv7akolyy3hpi.py":18:0), %arg1: !tt.ptr<f32> {tt.divisibility = 16 : i32} loc("results/my_experiment/torchinductor_cache_0/sx/csx4xk5b2z3osj2theivxgr52hc6r2e274t2hx3mv7akolyy3hpi.py":18:0), %arg2: i32 {tt.divisibility = 16 : i32} loc("results/my_experiment/torchinductor_cache_0/sx/csx4xk5b2z3osj2theivxgr52hc6r2e274t2hx3mv7akolyy3hpi.py":18:0), %arg3: i32 {tt.divisibility = 16 : i32} loc("results/my_experiment/torchinductor_cache_0/sx/csx4xk5b2z3osj2theivxgr52hc6r2e274t2hx3mv7akolyy3hpi.py":18:0)) attributes {noinline = false} {
    %cst = arith.constant dense<0.000000e+00> : tensor<64x64xbf16> loc(#loc1)
    %c96_i32 = arith.constant 96 : i32 loc(#loc1)
    %c0_i32 = arith.constant 0 : i32 loc(#loc1)
    %cst_0 = arith.constant dense<3456> : tensor<64x1xi32> loc(#loc1)
    %cst_1 = arith.constant dense<96> : tensor<64x1xi32> loc(#loc1)
    %cst_2 = arith.constant dense<96> : tensor<1x64xi32> loc(#loc1)
    %cst_3 = arith.constant dense<0.000000e+00> : tensor<64x64xf32> loc(#loc1)
    %cst_4 = arith.constant dense<12> : tensor<64x1xi32> loc(#loc1)
    %c64_i32 = arith.constant 64 : i32 loc(#loc1)
    %0 = tt.get_program_id x : i32 loc(#loc2)
    %1 = arith.muli %0, %c64_i32 : i32 loc(#loc3)
    %2 = tt.make_range {end = 64 : i32, start = 0 : i32} : tensor<64xi32> loc(#loc4)
    %3 = tt.expand_dims %2 {axis = 1 : i32} : tensor<64xi32> -> tensor<64x1xi32> loc(#loc5)
    %4 = tt.splat %1 : i32 -> tensor<64x1xi32> loc(#loc6)
    %5 = arith.addi %4, %3 : tensor<64x1xi32> loc(#loc6)
    %6 = tt.expand_dims %2 {axis = 0 : i32} : tensor<64xi32> -> tensor<1x64xi32> loc(#loc7)
    %7 = arith.remsi %5, %cst_4 : tensor<64x1xi32> loc(#loc8)
    %8 = arith.divsi %5, %cst_4 : tensor<64x1xi32> loc(#loc9)
    %9 = scf.for %arg4 = %c0_i32 to %c96_i32 step %c64_i32 iter_args(%arg5 = %cst_3) -> (tensor<64x64xf32>)  : i32 {
      %14 = tt.splat %arg4 : i32 -> tensor<1x64xi32> loc(#loc11)
      %15 = arith.addi %14, %6 : tensor<1x64xi32> loc(#loc11)
      %16 = arith.cmpi slt, %15, %cst_2 : tensor<1x64xi32> loc(#loc12)
      %17 = arith.muli %7, %cst_1 : tensor<64x1xi32> loc(#loc13)
      %18 = tt.broadcast %15 : tensor<1x64xi32> -> tensor<64x64xi32> loc(#loc14)
      %19 = tt.broadcast %17 : tensor<64x1xi32> -> tensor<64x64xi32> loc(#loc14)
      %20 = arith.addi %18, %19 : tensor<64x64xi32> loc(#loc14)
      %21 = arith.muli %8, %cst_0 : tensor<64x1xi32> loc(#loc15)
      %22 = tt.broadcast %21 : tensor<64x1xi32> -> tensor<64x64xi32> loc(#loc16)
      %23 = arith.addi %20, %22 : tensor<64x64xi32> loc(#loc16)
      %24 = tt.splat %arg0 : !tt.ptr<bf16> -> tensor<64x64x!tt.ptr<bf16>> loc(#loc17)
      %25 = tt.addptr %24, %23 : tensor<64x64x!tt.ptr<bf16>>, tensor<64x64xi32> loc(#loc17)
      %26 = tt.broadcast %16 : tensor<1x64xi1> -> tensor<64x64xi1> loc(#loc18)
      %27 = tt.load %25, %26, %cst evictionPolicy = evict_first : tensor<64x64x!tt.ptr<bf16>> loc(#loc18)
      %28 = arith.extf %27 : tensor<64x64xbf16> to tensor<64x64xf32> loc(#loc19)
      %29 = arith.mulf %28, %28 : tensor<64x64xf32> loc(#loc20)
      %30 = arith.addf %arg5, %29 : tensor<64x64xf32> loc(#loc21)
      %31 = arith.select %26, %30, %arg5 : tensor<64x64xi1>, tensor<64x64xf32> loc(#loc22)
      scf.yield %31 : tensor<64x64xf32> loc(#loc23)
    } loc(#loc10)
    %10 = "tt.reduce"(%9) <{axis = 1 : i32}> ({
    ^bb0(%arg4: f32 loc(callsite(#loc1 at #loc25)), %arg5: f32 loc(callsite(#loc1 at #loc25))):
      %14 = arith.addf %arg4, %arg5 : f32 loc(#loc34)
      tt.reduce.return %14 : f32 loc(#loc31)
    }) : (tensor<64x64xf32>) -> tensor<64xf32> loc(#loc31)
    %11 = tt.expand_dims %10 {axis = 1 : i32} : tensor<64xf32> -> tensor<64x1xf32> loc(#loc27)
    %12 = tt.splat %arg1 : !tt.ptr<f32> -> tensor<64x1x!tt.ptr<f32>> loc(#loc28)
    %13 = tt.addptr %12, %5 : tensor<64x1x!tt.ptr<f32>>, tensor<64x1xi32> loc(#loc28)
    tt.store %13, %11 : tensor<64x1x!tt.ptr<f32>> loc(#loc29)
    tt.return loc(#loc30)
  } loc(#loc)
} loc(#loc)
#loc2 = loc("results/my_experiment/torchinductor_cache_0/sx/csx4xk5b2z3osj2theivxgr52hc6r2e274t2hx3mv7akolyy3hpi.py":23:28)
#loc3 = loc("results/my_experiment/torchinductor_cache_0/sx/csx4xk5b2z3osj2theivxgr52hc6r2e274t2hx3mv7akolyy3hpi.py":23:33)
#loc4 = loc("results/my_experiment/torchinductor_cache_0/sx/csx4xk5b2z3osj2theivxgr52hc6r2e274t2hx3mv7akolyy3hpi.py":24:36)
#loc5 = loc("results/my_experiment/torchinductor_cache_0/sx/csx4xk5b2z3osj2theivxgr52hc6r2e274t2hx3mv7akolyy3hpi.py":24:44)
#loc6 = loc("results/my_experiment/torchinductor_cache_0/sx/csx4xk5b2z3osj2theivxgr52hc6r2e274t2hx3mv7akolyy3hpi.py":24:23)
#loc7 = loc("results/my_experiment/torchinductor_cache_0/sx/csx4xk5b2z3osj2theivxgr52hc6r2e274t2hx3mv7akolyy3hpi.py":26:37)
#loc8 = loc("results/my_experiment/torchinductor_cache_0/sx/csx4xk5b2z3osj2theivxgr52hc6r2e274t2hx3mv7akolyy3hpi.py":28:19)
#loc9 = loc("results/my_experiment/torchinductor_cache_0/sx/csx4xk5b2z3osj2theivxgr52hc6r2e274t2hx3mv7akolyy3hpi.py":29:19)
#loc10 = loc("results/my_experiment/torchinductor_cache_0/sx/csx4xk5b2z3osj2theivxgr52hc6r2e274t2hx3mv7akolyy3hpi.py":32:40)
#loc11 = loc("results/my_experiment/torchinductor_cache_0/sx/csx4xk5b2z3osj2theivxgr52hc6r2e274t2hx3mv7akolyy3hpi.py":33:31)
#loc12 = loc("results/my_experiment/torchinductor_cache_0/sx/csx4xk5b2z3osj2theivxgr52hc6r2e274t2hx3mv7akolyy3hpi.py":34:29)
#loc13 = loc("results/my_experiment/torchinductor_cache_0/sx/csx4xk5b2z3osj2theivxgr52hc6r2e274t2hx3mv7akolyy3hpi.py":38:44)
#loc14 = loc("results/my_experiment/torchinductor_cache_0/sx/csx4xk5b2z3osj2theivxgr52hc6r2e274t2hx3mv7akolyy3hpi.py":38:41)
#loc15 = loc("results/my_experiment/torchinductor_cache_0/sx/csx4xk5b2z3osj2theivxgr52hc6r2e274t2hx3mv7akolyy3hpi.py":38:54)
#loc16 = loc("results/my_experiment/torchinductor_cache_0/sx/csx4xk5b2z3osj2theivxgr52hc6r2e274t2hx3mv7akolyy3hpi.py":38:49)
#loc17 = loc("results/my_experiment/torchinductor_cache_0/sx/csx4xk5b2z3osj2theivxgr52hc6r2e274t2hx3mv7akolyy3hpi.py":38:34)
#loc18 = loc("results/my_experiment/torchinductor_cache_0/sx/csx4xk5b2z3osj2theivxgr52hc6r2e274t2hx3mv7akolyy3hpi.py":38:59)
#loc19 = loc("results/my_experiment/torchinductor_cache_0/sx/csx4xk5b2z3osj2theivxgr52hc6r2e274t2hx3mv7akolyy3hpi.py":38:113)
#loc20 = loc("results/my_experiment/torchinductor_cache_0/sx/csx4xk5b2z3osj2theivxgr52hc6r2e274t2hx3mv7akolyy3hpi.py":40:22)
#loc21 = loc("results/my_experiment/torchinductor_cache_0/sx/csx4xk5b2z3osj2theivxgr52hc6r2e274t2hx3mv7akolyy3hpi.py":42:23)
#loc22 = loc("results/my_experiment/torchinductor_cache_0/sx/csx4xk5b2z3osj2theivxgr52hc6r2e274t2hx3mv7akolyy3hpi.py":43:40)
#loc23 = loc("results/my_experiment/torchinductor_cache_0/sx/csx4xk5b2z3osj2theivxgr52hc6r2e274t2hx3mv7akolyy3hpi.py":43:8)
#loc24 = loc("/home/utka/proj/evs/vlm/lib/python3.12/site-packages/triton/language/standard.py":286:36)
#loc26 = loc("/home/utka/proj/evs/vlm/lib/python3.12/site-packages/triton/language/standard.py":256:15)
#loc27 = loc("results/my_experiment/torchinductor_cache_0/sx/csx4xk5b2z3osj2theivxgr52hc6r2e274t2hx3mv7akolyy3hpi.py":44:28)
#loc28 = loc("results/my_experiment/torchinductor_cache_0/sx/csx4xk5b2z3osj2theivxgr52hc6r2e274t2hx3mv7akolyy3hpi.py":45:25)
#loc29 = loc("results/my_experiment/torchinductor_cache_0/sx/csx4xk5b2z3osj2theivxgr52hc6r2e274t2hx3mv7akolyy3hpi.py":45:36)
#loc30 = loc("results/my_experiment/torchinductor_cache_0/sx/csx4xk5b2z3osj2theivxgr52hc6r2e274t2hx3mv7akolyy3hpi.py":45:4)
#loc31 = loc(callsite(#loc24 at #loc25))
#loc33 = loc(callsite(#loc26 at #loc24))
#loc34 = loc(callsite(#loc33 at #loc25))
