#loc = loc("results/my_experiment/torchinductor_cache_0/5z/c5zuhqjw62zqwqut67rx5ngffugnllo24du3crqj3k54ag7nczyp.py":18:0)
#loc1 = loc(unknown)
#loc24 = loc("results/my_experiment/torchinductor_cache_0/5z/c5zuhqjw62zqwqut67rx5ngffugnllo24du3crqj3k54ag7nczyp.py":44:25)
#loc31 = loc(callsite(#loc1 at #loc24))
module {
  tt.func public @triton_red_fused__to_copy_mean_pow_5(%arg0: !tt.ptr<bf16> {tt.divisibility = 16 : i32} loc("results/my_experiment/torchinductor_cache_0/5z/c5zuhqjw62zqwqut67rx5ngffugnllo24du3crqj3k54ag7nczyp.py":18:0), %arg1: !tt.ptr<f32> {tt.divisibility = 16 : i32} loc("results/my_experiment/torchinductor_cache_0/5z/c5zuhqjw62zqwqut67rx5ngffugnllo24du3crqj3k54ag7nczyp.py":18:0), %arg2: i32 {tt.divisibility = 16 : i32} loc("results/my_experiment/torchinductor_cache_0/5z/c5zuhqjw62zqwqut67rx5ngffugnllo24du3crqj3k54ag7nczyp.py":18:0), %arg3: i32 {tt.divisibility = 16 : i32} loc("results/my_experiment/torchinductor_cache_0/5z/c5zuhqjw62zqwqut67rx5ngffugnllo24du3crqj3k54ag7nczyp.py":18:0)) attributes {noinline = false} {
    %cst = arith.constant dense<0.000000e+00> : tensor<4x128xbf16> loc(#loc1)
    %cst_0 = arith.constant dense<3456> : tensor<4x1xi32> loc(#loc1)
    %cst_1 = arith.constant dense<96> : tensor<4x1xi32> loc(#loc1)
    %cst_2 = arith.constant dense<1152> : tensor<1x128xi32> loc(#loc1)
    %cst_3 = arith.constant dense<96> : tensor<1x128xi32> loc(#loc1)
    %cst_4 = arith.constant dense<0.000000e+00> : tensor<4x128xf32> loc(#loc1)
    %cst_5 = arith.constant dense<12> : tensor<4x1xi32> loc(#loc1)
    %c4_i32 = arith.constant 4 : i32 loc(#loc1)
    %0 = tt.get_program_id x : i32 loc(#loc2)
    %1 = arith.muli %0, %c4_i32 : i32 loc(#loc3)
    %2 = tt.make_range {end = 4 : i32, start = 0 : i32} : tensor<4xi32> loc(#loc4)
    %3 = tt.expand_dims %2 {axis = 1 : i32} : tensor<4xi32> -> tensor<4x1xi32> loc(#loc5)
    %4 = tt.splat %1 : i32 -> tensor<4x1xi32> loc(#loc6)
    %5 = arith.addi %4, %3 : tensor<4x1xi32> loc(#loc6)
    %6 = tt.make_range {end = 128 : i32, start = 0 : i32} : tensor<128xi32> loc(#loc7)
    %7 = tt.expand_dims %6 {axis = 0 : i32} : tensor<128xi32> -> tensor<1x128xi32> loc(#loc8)
    %8 = arith.remsi %5, %cst_5 : tensor<4x1xi32> loc(#loc9)
    %9 = arith.divsi %5, %cst_5 : tensor<4x1xi32> loc(#loc10)
    %10 = arith.cmpi slt, %7, %cst_3 : tensor<1x128xi32> loc(#loc11)
    %11 = arith.addi %7, %cst_2 : tensor<1x128xi32> loc(#loc12)
    %12 = arith.muli %8, %cst_1 : tensor<4x1xi32> loc(#loc13)
    %13 = tt.broadcast %11 : tensor<1x128xi32> -> tensor<4x128xi32> loc(#loc14)
    %14 = tt.broadcast %12 : tensor<4x1xi32> -> tensor<4x128xi32> loc(#loc14)
    %15 = arith.addi %13, %14 : tensor<4x128xi32> loc(#loc14)
    %16 = arith.muli %9, %cst_0 : tensor<4x1xi32> loc(#loc15)
    %17 = tt.broadcast %16 : tensor<4x1xi32> -> tensor<4x128xi32> loc(#loc16)
    %18 = arith.addi %15, %17 : tensor<4x128xi32> loc(#loc16)
    %19 = tt.splat %arg0 : !tt.ptr<bf16> -> tensor<4x128x!tt.ptr<bf16>> loc(#loc17)
    %20 = tt.addptr %19, %18 : tensor<4x128x!tt.ptr<bf16>>, tensor<4x128xi32> loc(#loc17)
    %21 = tt.broadcast %10 : tensor<1x128xi1> -> tensor<4x128xi1> loc(#loc18)
    %22 = tt.load %20, %21, %cst evictionPolicy = evict_first : tensor<4x128x!tt.ptr<bf16>> loc(#loc18)
    %23 = arith.extf %22 : tensor<4x128xbf16> to tensor<4x128xf32> loc(#loc19)
    %24 = arith.mulf %23, %23 : tensor<4x128xf32> loc(#loc20)
    %25 = arith.addf %24, %cst_4 : tensor<4x128xf32> loc(#loc21)
    %26 = arith.select %21, %25, %cst_4 : tensor<4x128xi1>, tensor<4x128xf32> loc(#loc22)
    %27 = "tt.reduce"(%26) <{axis = 1 : i32}> ({
    ^bb0(%arg4: f32 loc(callsite(#loc1 at #loc24)), %arg5: f32 loc(callsite(#loc1 at #loc24))):
      %31 = arith.addf %arg4, %arg5 : f32 loc(#loc33)
      tt.reduce.return %31 : f32 loc(#loc30)
    }) : (tensor<4x128xf32>) -> tensor<4xf32> loc(#loc30)
    %28 = tt.expand_dims %27 {axis = 1 : i32} : tensor<4xf32> -> tensor<4x1xf32> loc(#loc26)
    %29 = tt.splat %arg1 : !tt.ptr<f32> -> tensor<4x1x!tt.ptr<f32>> loc(#loc27)
    %30 = tt.addptr %29, %5 : tensor<4x1x!tt.ptr<f32>>, tensor<4x1xi32> loc(#loc27)
    tt.store %30, %28 : tensor<4x1x!tt.ptr<f32>> loc(#loc28)
    tt.return loc(#loc29)
  } loc(#loc)
} loc(#loc)
#loc2 = loc("results/my_experiment/torchinductor_cache_0/5z/c5zuhqjw62zqwqut67rx5ngffugnllo24du3crqj3k54ag7nczyp.py":23:28)
#loc3 = loc("results/my_experiment/torchinductor_cache_0/5z/c5zuhqjw62zqwqut67rx5ngffugnllo24du3crqj3k54ag7nczyp.py":23:33)
#loc4 = loc("results/my_experiment/torchinductor_cache_0/5z/c5zuhqjw62zqwqut67rx5ngffugnllo24du3crqj3k54ag7nczyp.py":24:36)
#loc5 = loc("results/my_experiment/torchinductor_cache_0/5z/c5zuhqjw62zqwqut67rx5ngffugnllo24du3crqj3k54ag7nczyp.py":24:44)
#loc6 = loc("results/my_experiment/torchinductor_cache_0/5z/c5zuhqjw62zqwqut67rx5ngffugnllo24du3crqj3k54ag7nczyp.py":24:23)
#loc7 = loc("results/my_experiment/torchinductor_cache_0/5z/c5zuhqjw62zqwqut67rx5ngffugnllo24du3crqj3k54ag7nczyp.py":26:27)
#loc8 = loc("results/my_experiment/torchinductor_cache_0/5z/c5zuhqjw62zqwqut67rx5ngffugnllo24du3crqj3k54ag7nczyp.py":26:37)
#loc9 = loc("results/my_experiment/torchinductor_cache_0/5z/c5zuhqjw62zqwqut67rx5ngffugnllo24du3crqj3k54ag7nczyp.py":28:19)
#loc10 = loc("results/my_experiment/torchinductor_cache_0/5z/c5zuhqjw62zqwqut67rx5ngffugnllo24du3crqj3k54ag7nczyp.py":29:19)
#loc11 = loc("results/my_experiment/torchinductor_cache_0/5z/c5zuhqjw62zqwqut67rx5ngffugnllo24du3crqj3k54ag7nczyp.py":34:29)
#loc12 = loc("results/my_experiment/torchinductor_cache_0/5z/c5zuhqjw62zqwqut67rx5ngffugnllo24du3crqj3k54ag7nczyp.py":38:41)
#loc13 = loc("results/my_experiment/torchinductor_cache_0/5z/c5zuhqjw62zqwqut67rx5ngffugnllo24du3crqj3k54ag7nczyp.py":38:51)
#loc14 = loc("results/my_experiment/torchinductor_cache_0/5z/c5zuhqjw62zqwqut67rx5ngffugnllo24du3crqj3k54ag7nczyp.py":38:48)
#loc15 = loc("results/my_experiment/torchinductor_cache_0/5z/c5zuhqjw62zqwqut67rx5ngffugnllo24du3crqj3k54ag7nczyp.py":38:61)
#loc16 = loc("results/my_experiment/torchinductor_cache_0/5z/c5zuhqjw62zqwqut67rx5ngffugnllo24du3crqj3k54ag7nczyp.py":38:56)
#loc17 = loc("results/my_experiment/torchinductor_cache_0/5z/c5zuhqjw62zqwqut67rx5ngffugnllo24du3crqj3k54ag7nczyp.py":38:34)
#loc18 = loc("results/my_experiment/torchinductor_cache_0/5z/c5zuhqjw62zqwqut67rx5ngffugnllo24du3crqj3k54ag7nczyp.py":38:66)
#loc19 = loc("results/my_experiment/torchinductor_cache_0/5z/c5zuhqjw62zqwqut67rx5ngffugnllo24du3crqj3k54ag7nczyp.py":38:120)
#loc20 = loc("results/my_experiment/torchinductor_cache_0/5z/c5zuhqjw62zqwqut67rx5ngffugnllo24du3crqj3k54ag7nczyp.py":40:22)
#loc21 = loc("results/my_experiment/torchinductor_cache_0/5z/c5zuhqjw62zqwqut67rx5ngffugnllo24du3crqj3k54ag7nczyp.py":42:23)
#loc22 = loc("results/my_experiment/torchinductor_cache_0/5z/c5zuhqjw62zqwqut67rx5ngffugnllo24du3crqj3k54ag7nczyp.py":43:40)
#loc23 = loc("/home/utka/proj/evs/vlm/lib/python3.12/site-packages/triton/language/standard.py":286:36)
#loc25 = loc("/home/utka/proj/evs/vlm/lib/python3.12/site-packages/triton/language/standard.py":256:15)
#loc26 = loc("results/my_experiment/torchinductor_cache_0/5z/c5zuhqjw62zqwqut67rx5ngffugnllo24du3crqj3k54ag7nczyp.py":44:28)
#loc27 = loc("results/my_experiment/torchinductor_cache_0/5z/c5zuhqjw62zqwqut67rx5ngffugnllo24du3crqj3k54ag7nczyp.py":45:25)
#loc28 = loc("results/my_experiment/torchinductor_cache_0/5z/c5zuhqjw62zqwqut67rx5ngffugnllo24du3crqj3k54ag7nczyp.py":45:36)
#loc29 = loc("results/my_experiment/torchinductor_cache_0/5z/c5zuhqjw62zqwqut67rx5ngffugnllo24du3crqj3k54ag7nczyp.py":45:4)
#loc30 = loc(callsite(#loc23 at #loc24))
#loc32 = loc(callsite(#loc25 at #loc23))
#loc33 = loc(callsite(#loc32 at #loc24))
