#loc = loc("results/my_experiment/torchinductor_cache_0/vq/cvqdyozaghmi4lp4iyhx2fxobezicbtl7nf4ani35a2ls2sbifet.py":18:0)
module {
  tt.func public @triton_poi_fused_gelu_3(%arg0: !tt.ptr<bf16> {tt.divisibility = 16 : i32} loc("results/my_experiment/torchinductor_cache_0/vq/cvqdyozaghmi4lp4iyhx2fxobezicbtl7nf4ani35a2ls2sbifet.py":18:0), %arg1: !tt.ptr<bf16> {tt.divisibility = 16 : i32} loc("results/my_experiment/torchinductor_cache_0/vq/cvqdyozaghmi4lp4iyhx2fxobezicbtl7nf4ani35a2ls2sbifet.py":18:0), %arg2: i32 {tt.divisibility = 16 : i32} loc("results/my_experiment/torchinductor_cache_0/vq/cvqdyozaghmi4lp4iyhx2fxobezicbtl7nf4ani35a2ls2sbifet.py":18:0)) attributes {noinline = false} {
    %cst = arith.constant dense<1.000000e+00> : tensor<1024xf32> loc(#loc1)
    %cst_0 = arith.constant dense<0.797884583> : tensor<1024xf32> loc(#loc1)
    %cst_1 = arith.constant dense<4.471500e-02> : tensor<1024xf32> loc(#loc1)
    %cst_2 = arith.constant dense<5.000000e-01> : tensor<1024xf32> loc(#loc1)
    %c1024_i32 = arith.constant 1024 : i32 loc(#loc1)
    %0 = tt.get_program_id x : i32 loc(#loc2)
    %1 = arith.muli %0, %c1024_i32 : i32 loc(#loc3)
    %2 = tt.make_range {end = 1024 : i32, start = 0 : i32} : tensor<1024xi32> loc(#loc4)
    %3 = tt.splat %1 : i32 -> tensor<1024xi32> loc(#loc5)
    %4 = arith.addi %3, %2 : tensor<1024xi32> loc(#loc5)
    %5 = tt.splat %arg0 : !tt.ptr<bf16> -> tensor<1024x!tt.ptr<bf16>> loc(#loc6)
    %6 = tt.addptr %5, %4 : tensor<1024x!tt.ptr<bf16>>, tensor<1024xi32> loc(#loc6)
    %7 = tt.load %6 : tensor<1024x!tt.ptr<bf16>> loc(#loc7)
    %8 = arith.extf %7 : tensor<1024xbf16> to tensor<1024xf32> loc(#loc8)
    %9 = arith.mulf %8, %cst_2 : tensor<1024xf32> loc(#loc9)
    %10 = arith.mulf %8, %8 : tensor<1024xf32> loc(#loc10)
    %11 = arith.mulf %10, %8 : tensor<1024xf32> loc(#loc11)
    %12 = arith.mulf %11, %cst_1 : tensor<1024xf32> loc(#loc12)
    %13 = arith.addf %8, %12 : tensor<1024xf32> loc(#loc13)
    %14 = arith.mulf %13, %cst_0 : tensor<1024xf32> loc(#loc14)
    %15 = tt.extern_elementwise %14 {libname = "", libpath = "", pure = true, symbol = "__nv_tanhf"} : (tensor<1024xf32>) -> tensor<1024xf32> loc(#loc15)
    %16 = arith.addf %15, %cst : tensor<1024xf32> loc(#loc16)
    %17 = arith.mulf %9, %16 : tensor<1024xf32> loc(#loc17)
    %18 = tt.splat %arg1 : !tt.ptr<bf16> -> tensor<1024x!tt.ptr<bf16>> loc(#loc18)
    %19 = tt.addptr %18, %4 : tensor<1024x!tt.ptr<bf16>>, tensor<1024xi32> loc(#loc18)
    %20 = arith.truncf %17 : tensor<1024xf32> to tensor<1024xbf16> loc(#loc19)
    tt.store %19, %20 : tensor<1024x!tt.ptr<bf16>> loc(#loc19)
    tt.return loc(#loc20)
  } loc(#loc)
} loc(#loc)
#loc1 = loc(unknown)
#loc2 = loc("results/my_experiment/torchinductor_cache_0/vq/cvqdyozaghmi4lp4iyhx2fxobezicbtl7nf4ani35a2ls2sbifet.py":20:28)
#loc3 = loc("results/my_experiment/torchinductor_cache_0/vq/cvqdyozaghmi4lp4iyhx2fxobezicbtl7nf4ani35a2ls2sbifet.py":20:33)
#loc4 = loc("results/my_experiment/torchinductor_cache_0/vq/cvqdyozaghmi4lp4iyhx2fxobezicbtl7nf4ani35a2ls2sbifet.py":21:36)
#loc5 = loc("results/my_experiment/torchinductor_cache_0/vq/cvqdyozaghmi4lp4iyhx2fxobezicbtl7nf4ani35a2ls2sbifet.py":21:23)
#loc6 = loc("results/my_experiment/torchinductor_cache_0/vq/cvqdyozaghmi4lp4iyhx2fxobezicbtl7nf4ani35a2ls2sbifet.py":24:30)
#loc7 = loc("results/my_experiment/torchinductor_cache_0/vq/cvqdyozaghmi4lp4iyhx2fxobezicbtl7nf4ani35a2ls2sbifet.py":24:35)
#loc8 = loc("results/my_experiment/torchinductor_cache_0/vq/cvqdyozaghmi4lp4iyhx2fxobezicbtl7nf4ani35a2ls2sbifet.py":24:44)
#loc9 = loc("results/my_experiment/torchinductor_cache_0/vq/cvqdyozaghmi4lp4iyhx2fxobezicbtl7nf4ani35a2ls2sbifet.py":27:18)
#loc10 = loc("results/my_experiment/torchinductor_cache_0/vq/cvqdyozaghmi4lp4iyhx2fxobezicbtl7nf4ani35a2ls2sbifet.py":28:18)
#loc11 = loc("results/my_experiment/torchinductor_cache_0/vq/cvqdyozaghmi4lp4iyhx2fxobezicbtl7nf4ani35a2ls2sbifet.py":29:18)
#loc12 = loc("results/my_experiment/torchinductor_cache_0/vq/cvqdyozaghmi4lp4iyhx2fxobezicbtl7nf4ani35a2ls2sbifet.py":31:18)
#loc13 = loc("results/my_experiment/torchinductor_cache_0/vq/cvqdyozaghmi4lp4iyhx2fxobezicbtl7nf4ani35a2ls2sbifet.py":32:18)
#loc14 = loc("results/my_experiment/torchinductor_cache_0/vq/cvqdyozaghmi4lp4iyhx2fxobezicbtl7nf4ani35a2ls2sbifet.py":34:19)
#loc15 = loc("results/my_experiment/torchinductor_cache_0/vq/cvqdyozaghmi4lp4iyhx2fxobezicbtl7nf4ani35a2ls2sbifet.py":35:27)
#loc16 = loc("results/my_experiment/torchinductor_cache_0/vq/cvqdyozaghmi4lp4iyhx2fxobezicbtl7nf4ani35a2ls2sbifet.py":37:20)
#loc17 = loc("results/my_experiment/torchinductor_cache_0/vq/cvqdyozaghmi4lp4iyhx2fxobezicbtl7nf4ani35a2ls2sbifet.py":38:19)
#loc18 = loc("results/my_experiment/torchinductor_cache_0/vq/cvqdyozaghmi4lp4iyhx2fxobezicbtl7nf4ani35a2ls2sbifet.py":40:25)
#loc19 = loc("results/my_experiment/torchinductor_cache_0/vq/cvqdyozaghmi4lp4iyhx2fxobezicbtl7nf4ani35a2ls2sbifet.py":40:37)
#loc20 = loc("results/my_experiment/torchinductor_cache_0/vq/cvqdyozaghmi4lp4iyhx2fxobezicbtl7nf4ani35a2ls2sbifet.py":40:4)
