#loc = loc("results/my_experiment/torchinductor_cache_0/ew/cewo67cbls3o6pndqngfbei3khtheqshhif4elju3nw5ygcunc4x.py":18:0)
#loc1 = loc(unknown)
#loc12 = loc("results/my_experiment/torchinductor_cache_0/ew/cewo67cbls3o6pndqngfbei3khtheqshhif4elju3nw5ygcunc4x.py":43:57)
#loc17 = loc("results/my_experiment/torchinductor_cache_0/ew/cewo67cbls3o6pndqngfbei3khtheqshhif4elju3nw5ygcunc4x.py":46:59)
#loc31 = loc(callsite(#loc1 at #loc12))
#loc35 = loc(callsite(#loc1 at #loc17))
module {
  tt.func public @triton_per_fused__to_copy_add_gt_log_mean_mse_loss_mul_neg_sub_sum_where_6(%arg0: !tt.ptr<f32> {tt.divisibility = 16 : i32} loc("results/my_experiment/torchinductor_cache_0/ew/cewo67cbls3o6pndqngfbei3khtheqshhif4elju3nw5ygcunc4x.py":18:0), %arg1: !tt.ptr<f32> {tt.divisibility = 16 : i32} loc("results/my_experiment/torchinductor_cache_0/ew/cewo67cbls3o6pndqngfbei3khtheqshhif4elju3nw5ygcunc4x.py":18:0), %arg2: !tt.ptr<f32> {tt.divisibility = 16 : i32} loc("results/my_experiment/torchinductor_cache_0/ew/cewo67cbls3o6pndqngfbei3khtheqshhif4elju3nw5ygcunc4x.py":18:0), %arg3: !tt.ptr<f32> {tt.divisibility = 16 : i32} loc("results/my_experiment/torchinductor_cache_0/ew/cewo67cbls3o6pndqngfbei3khtheqshhif4elju3nw5ygcunc4x.py":18:0), %arg4: i32 {tt.divisibility = 16 : i32} loc("results/my_experiment/torchinductor_cache_0/ew/cewo67cbls3o6pndqngfbei3khtheqshhif4elju3nw5ygcunc4x.py":18:0)) attributes {noinline = false} {
    %cst = arith.constant 6.250000e-04 : f32 loc(#loc1)
    %cst_0 = arith.constant 4.608000e+03 : f32 loc(#loc1)
    %cst_1 = arith.constant 2.500000e-03 : f32 loc(#loc1)
    %cst_2 = arith.constant 5.120000e+02 : f32 loc(#loc1)
    %cst_3 = arith.constant 0.000000e+00 : f32 loc(#loc1)
    %cst_4 = arith.constant dense<0.000000e+00> : tensor<512xf32> loc(#loc1)
    %cst_5 = arith.constant dense<9.99999974E-6> : tensor<512xf32> loc(#loc1)
    %0 = tt.make_range {end = 512 : i32, start = 0 : i32} : tensor<512xi32> loc(#loc2)
    %1 = tt.splat %arg1 : !tt.ptr<f32> -> tensor<512x!tt.ptr<f32>> loc(#loc3)
    %2 = tt.addptr %1, %0 : tensor<512x!tt.ptr<f32>>, tensor<512xi32> loc(#loc3)
    %3 = tt.load %2 : tensor<512x!tt.ptr<f32>> loc(#loc4)
    %4 = tt.splat %arg2 : !tt.ptr<f32> -> tensor<512x!tt.ptr<f32>> loc(#loc5)
    %5 = tt.addptr %4, %0 : tensor<512x!tt.ptr<f32>>, tensor<512xi32> loc(#loc5)
    %6 = tt.load %5 : tensor<512x!tt.ptr<f32>> loc(#loc6)
    %7 = tt.load %arg3 : !tt.ptr<f32> loc(#loc7)
    %8 = arith.addf %3, %cst_5 : tensor<512xf32> loc(#loc8)
    %9 = math.log %8 : tensor<512xf32> loc(#loc9)
    %10 = arith.mulf %3, %9 : tensor<512xf32> loc(#loc10)
    %11 = "tt.reduce"(%10) <{axis = 0 : i32}> ({
    ^bb0(%arg5: f32 loc(callsite(#loc1 at #loc12)), %arg6: f32 loc(callsite(#loc1 at #loc12))):
      %25 = arith.addf %arg5, %arg6 : f32 loc(#loc37)
      tt.reduce.return %25 : f32 loc(#loc30)
    }) : (tensor<512xf32>) -> f32 loc(#loc30)
    %12 = arith.addf %11, %cst_3 : f32 loc(#loc33)
    %13 = arith.subf %cst_4, %6 : tensor<512xf32> loc(#loc16)
    %14 = "tt.reduce"(%13) <{axis = 0 : i32}> ({
    ^bb0(%arg5: f32 loc(callsite(#loc1 at #loc17)), %arg6: f32 loc(callsite(#loc1 at #loc17))):
      %25 = arith.addf %arg5, %arg6 : f32 loc(#loc38)
      tt.reduce.return %25 : f32 loc(#loc34)
    }) : (tensor<512xf32>) -> f32 loc(#loc34)
    %15 = arith.addf %14, %cst_3 : f32 loc(#loc36)
    %16 = arith.divf %15, %cst_2 : f32 loc(#loc19)
    %17 = arith.subf %cst_3, %12 : f32 loc(#loc20)
    %18 = arith.subf %16, %17 : f32 loc(#loc21)
    %19 = arith.mulf %18, %cst_1 : f32 loc(#loc22)
    %20 = arith.divf %7, %cst_0 : f32 loc(#loc23)
    %21 = arith.mulf %20, %cst : f32 loc(#loc24)
    %22 = arith.addf %19, %21 : f32 loc(#loc25)
    %23 = tt.splat %22 : f32 -> tensor<1xf32> loc(#loc25)
    gpu.barrier loc(#loc26)
    %24 = tt.splat %arg0 : !tt.ptr<f32> -> tensor<1x!tt.ptr<f32>> loc(#loc27)
    tt.store %24, %23 : tensor<1x!tt.ptr<f32>> loc(#loc28)
    tt.return loc(#loc29)
  } loc(#loc)
} loc(#loc)
#loc2 = loc("results/my_experiment/torchinductor_cache_0/ew/cewo67cbls3o6pndqngfbei3khtheqshhif4elju3nw5ygcunc4x.py":28:28)
#loc3 = loc("results/my_experiment/torchinductor_cache_0/ew/cewo67cbls3o6pndqngfbei3khtheqshhif4elju3nw5ygcunc4x.py":34:30)
#loc4 = loc("results/my_experiment/torchinductor_cache_0/ew/cewo67cbls3o6pndqngfbei3khtheqshhif4elju3nw5ygcunc4x.py":34:37)
#loc5 = loc("results/my_experiment/torchinductor_cache_0/ew/cewo67cbls3o6pndqngfbei3khtheqshhif4elju3nw5ygcunc4x.py":35:30)
#loc6 = loc("results/my_experiment/torchinductor_cache_0/ew/cewo67cbls3o6pndqngfbei3khtheqshhif4elju3nw5ygcunc4x.py":35:37)
#loc7 = loc("results/my_experiment/torchinductor_cache_0/ew/cewo67cbls3o6pndqngfbei3khtheqshhif4elju3nw5ygcunc4x.py":36:20)
#loc8 = loc("results/my_experiment/torchinductor_cache_0/ew/cewo67cbls3o6pndqngfbei3khtheqshhif4elju3nw5ygcunc4x.py":39:18)
#loc9 = loc("results/my_experiment/torchinductor_cache_0/ew/cewo67cbls3o6pndqngfbei3khtheqshhif4elju3nw5ygcunc4x.py":40:23)
#loc10 = loc("results/my_experiment/torchinductor_cache_0/ew/cewo67cbls3o6pndqngfbei3khtheqshhif4elju3nw5ygcunc4x.py":41:18)
#loc11 = loc("/home/utka/proj/evs/vlm/lib/python3.12/site-packages/triton/language/standard.py":286:36)
#loc13 = loc("/home/utka/proj/evs/vlm/lib/python3.12/site-packages/triton/language/standard.py":256:15)
#loc14 = loc("/home/utka/proj/evs/vlm/lib/python3.12/site-packages/torch/_inductor/runtime/triton_helpers.py":57:15)
#loc15 = loc("results/my_experiment/torchinductor_cache_0/ew/cewo67cbls3o6pndqngfbei3khtheqshhif4elju3nw5ygcunc4x.py":43:44)
#loc16 = loc("results/my_experiment/torchinductor_cache_0/ew/cewo67cbls3o6pndqngfbei3khtheqshhif4elju3nw5ygcunc4x.py":44:12)
#loc18 = loc("results/my_experiment/torchinductor_cache_0/ew/cewo67cbls3o6pndqngfbei3khtheqshhif4elju3nw5ygcunc4x.py":46:45)
#loc19 = loc("results/my_experiment/torchinductor_cache_0/ew/cewo67cbls3o6pndqngfbei3khtheqshhif4elju3nw5ygcunc4x.py":48:21)
#loc20 = loc("results/my_experiment/torchinductor_cache_0/ew/cewo67cbls3o6pndqngfbei3khtheqshhif4elju3nw5ygcunc4x.py":51:13)
#loc21 = loc("results/my_experiment/torchinductor_cache_0/ew/cewo67cbls3o6pndqngfbei3khtheqshhif4elju3nw5ygcunc4x.py":53:20)
#loc22 = loc("results/my_experiment/torchinductor_cache_0/ew/cewo67cbls3o6pndqngfbei3khtheqshhif4elju3nw5ygcunc4x.py":55:20)
#loc23 = loc("results/my_experiment/torchinductor_cache_0/ew/cewo67cbls3o6pndqngfbei3khtheqshhif4elju3nw5ygcunc4x.py":57:21)
#loc24 = loc("results/my_experiment/torchinductor_cache_0/ew/cewo67cbls3o6pndqngfbei3khtheqshhif4elju3nw5ygcunc4x.py":59:20)
#loc25 = loc("results/my_experiment/torchinductor_cache_0/ew/cewo67cbls3o6pndqngfbei3khtheqshhif4elju3nw5ygcunc4x.py":60:20)
#loc26 = loc("results/my_experiment/torchinductor_cache_0/ew/cewo67cbls3o6pndqngfbei3khtheqshhif4elju3nw5ygcunc4x.py":61:4)
#loc27 = loc("results/my_experiment/torchinductor_cache_0/ew/cewo67cbls3o6pndqngfbei3khtheqshhif4elju3nw5ygcunc4x.py":62:28)
#loc28 = loc("results/my_experiment/torchinductor_cache_0/ew/cewo67cbls3o6pndqngfbei3khtheqshhif4elju3nw5ygcunc4x.py":62:63)
#loc29 = loc("results/my_experiment/torchinductor_cache_0/ew/cewo67cbls3o6pndqngfbei3khtheqshhif4elju3nw5ygcunc4x.py":62:4)
#loc30 = loc(callsite(#loc11 at #loc12))
#loc32 = loc(callsite(#loc13 at #loc11))
#loc33 = loc(callsite(#loc14 at #loc15))
#loc34 = loc(callsite(#loc11 at #loc17))
#loc36 = loc(callsite(#loc14 at #loc18))
#loc37 = loc(callsite(#loc32 at #loc12))
#loc38 = loc(callsite(#loc32 at #loc17))
