#loc = loc("results/my_experiment/torchinductor_cache_0/vy/cvyuysgjjorkf4vrmsukd5ufq7yijuefjcrb3z5ye6n7d6l4di3c.py":18:0)
module {
  tt.func public @triton_poi_fused_silu_1(%arg0: !tt.ptr<bf16> {tt.divisibility = 16 : i32} loc("results/my_experiment/torchinductor_cache_0/vy/cvyuysgjjorkf4vrmsukd5ufq7yijuefjcrb3z5ye6n7d6l4di3c.py":18:0), %arg1: !tt.ptr<bf16> {tt.divisibility = 16 : i32} loc("results/my_experiment/torchinductor_cache_0/vy/cvyuysgjjorkf4vrmsukd5ufq7yijuefjcrb3z5ye6n7d6l4di3c.py":18:0), %arg2: !tt.ptr<bf16> {tt.divisibility = 16 : i32} loc("results/my_experiment/torchinductor_cache_0/vy/cvyuysgjjorkf4vrmsukd5ufq7yijuefjcrb3z5ye6n7d6l4di3c.py":18:0), %arg3: i32 {tt.divisibility = 16 : i32} loc("results/my_experiment/torchinductor_cache_0/vy/cvyuysgjjorkf4vrmsukd5ufq7yijuefjcrb3z5ye6n7d6l4di3c.py":18:0)) attributes {noinline = false} {
    %cst = arith.constant dense<0.000000e+00> : tensor<128xf32> loc(#loc1)
    %cst_0 = arith.constant dense<1.000000e+00> : tensor<128xf32> loc(#loc1)
    %cst_1 = arith.constant dense<2304> : tensor<128xi32> loc(#loc1)
    %c128_i32 = arith.constant 128 : i32 loc(#loc1)
    %0 = tt.get_program_id x : i32 loc(#loc2)
    %1 = arith.muli %0, %c128_i32 : i32 loc(#loc3)
    %2 = tt.make_range {end = 128 : i32, start = 0 : i32} : tensor<128xi32> loc(#loc4)
    %3 = tt.splat %1 : i32 -> tensor<128xi32> loc(#loc5)
    %4 = arith.addi %3, %2 : tensor<128xi32> loc(#loc5)
    %5 = arith.cmpi slt, %4, %cst_1 : tensor<128xi32> loc(#loc6)
    %6 = tt.splat %arg0 : !tt.ptr<bf16> -> tensor<128x!tt.ptr<bf16>> loc(#loc7)
    %7 = tt.addptr %6, %4 : tensor<128x!tt.ptr<bf16>>, tensor<128xi32> loc(#loc7)
    %8 = tt.load %7, %5 : tensor<128x!tt.ptr<bf16>> loc(#loc8)
    %9 = arith.extf %8 : tensor<128xbf16> to tensor<128xf32> loc(#loc9)
    %10 = arith.subf %cst, %9 : tensor<128xf32> loc(#loc21)
    %11 = math.exp %10 : tensor<128xf32> loc(#loc22)
    %12 = arith.addf %11, %cst_0 : tensor<128xf32> loc(#loc23)
    %13 = arith.divf %cst_0, %12 : tensor<128xf32> loc(#loc24)
    %14 = arith.mulf %9, %13 : tensor<128xf32> loc(#loc15)
    %15 = tt.splat %arg1 : !tt.ptr<bf16> -> tensor<128x!tt.ptr<bf16>> loc(#loc16)
    %16 = tt.addptr %15, %4 : tensor<128x!tt.ptr<bf16>>, tensor<128xi32> loc(#loc16)
    %17 = arith.truncf %14 : tensor<128xf32> to tensor<128xbf16> loc(#loc17)
    tt.store %16, %17, %5 : tensor<128x!tt.ptr<bf16>> loc(#loc17)
    %18 = tt.splat %arg2 : !tt.ptr<bf16> -> tensor<128x!tt.ptr<bf16>> loc(#loc18)
    %19 = tt.addptr %18, %4 : tensor<128x!tt.ptr<bf16>>, tensor<128xi32> loc(#loc18)
    tt.store %19, %17, %5 : tensor<128x!tt.ptr<bf16>> loc(#loc19)
    tt.return loc(#loc20)
  } loc(#loc)
} loc(#loc)
#loc1 = loc(unknown)
#loc2 = loc("results/my_experiment/torchinductor_cache_0/vy/cvyuysgjjorkf4vrmsukd5ufq7yijuefjcrb3z5ye6n7d6l4di3c.py":20:28)
#loc3 = loc("results/my_experiment/torchinductor_cache_0/vy/cvyuysgjjorkf4vrmsukd5ufq7yijuefjcrb3z5ye6n7d6l4di3c.py":20:33)
#loc4 = loc("results/my_experiment/torchinductor_cache_0/vy/cvyuysgjjorkf4vrmsukd5ufq7yijuefjcrb3z5ye6n7d6l4di3c.py":21:36)
#loc5 = loc("results/my_experiment/torchinductor_cache_0/vy/cvyuysgjjorkf4vrmsukd5ufq7yijuefjcrb3z5ye6n7d6l4di3c.py":21:23)
#loc6 = loc("results/my_experiment/torchinductor_cache_0/vy/cvyuysgjjorkf4vrmsukd5ufq7yijuefjcrb3z5ye6n7d6l4di3c.py":22:21)
#loc7 = loc("results/my_experiment/torchinductor_cache_0/vy/cvyuysgjjorkf4vrmsukd5ufq7yijuefjcrb3z5ye6n7d6l4di3c.py":24:30)
#loc8 = loc("results/my_experiment/torchinductor_cache_0/vy/cvyuysgjjorkf4vrmsukd5ufq7yijuefjcrb3z5ye6n7d6l4di3c.py":24:35)
#loc9 = loc("results/my_experiment/torchinductor_cache_0/vy/cvyuysgjjorkf4vrmsukd5ufq7yijuefjcrb3z5ye6n7d6l4di3c.py":24:45)
#loc10 = loc("/home/utka/proj/evs/vlm/lib/python3.12/site-packages/triton/language/standard.py":47:30)
#loc11 = loc("results/my_experiment/torchinductor_cache_0/vy/cvyuysgjjorkf4vrmsukd5ufq7yijuefjcrb3z5ye6n7d6l4di3c.py":26:22)
#loc12 = loc("/home/utka/proj/evs/vlm/lib/python3.12/site-packages/triton/language/standard.py":47:29)
#loc13 = loc("/home/utka/proj/evs/vlm/lib/python3.12/site-packages/triton/language/standard.py":47:20)
#loc14 = loc("/home/utka/proj/evs/vlm/lib/python3.12/site-packages/triton/language/standard.py":47:16)
#loc15 = loc("results/my_experiment/torchinductor_cache_0/vy/cvyuysgjjorkf4vrmsukd5ufq7yijuefjcrb3z5ye6n7d6l4di3c.py":27:18)
#loc16 = loc("results/my_experiment/torchinductor_cache_0/vy/cvyuysgjjorkf4vrmsukd5ufq7yijuefjcrb3z5ye6n7d6l4di3c.py":29:25)
#loc17 = loc("results/my_experiment/torchinductor_cache_0/vy/cvyuysgjjorkf4vrmsukd5ufq7yijuefjcrb3z5ye6n7d6l4di3c.py":29:36)
#loc18 = loc("results/my_experiment/torchinductor_cache_0/vy/cvyuysgjjorkf4vrmsukd5ufq7yijuefjcrb3z5ye6n7d6l4di3c.py":30:25)
#loc19 = loc("results/my_experiment/torchinductor_cache_0/vy/cvyuysgjjorkf4vrmsukd5ufq7yijuefjcrb3z5ye6n7d6l4di3c.py":30:36)
#loc20 = loc("results/my_experiment/torchinductor_cache_0/vy/cvyuysgjjorkf4vrmsukd5ufq7yijuefjcrb3z5ye6n7d6l4di3c.py":30:4)
#loc21 = loc(callsite(#loc10 at #loc11))
#loc22 = loc(callsite(#loc12 at #loc11))
#loc23 = loc(callsite(#loc13 at #loc11))
#loc24 = loc(callsite(#loc14 at #loc11))
