#loc = loc("results/my_experiment/torchinductor_cache_0/op/copyq2b4jap6aqjvbv7exwa7tholimoxttv2t4zt72kddw6ybshd.py":18:0)
#loc1 = loc(unknown)
#loc21 = loc("results/my_experiment/torchinductor_cache_0/op/copyq2b4jap6aqjvbv7exwa7tholimoxttv2t4zt72kddw6ybshd.py":40:24)
#loc28 = loc(callsite(#loc1 at #loc21))
module {
  tt.func public @triton_per_fused__to_copy_mean_pow_10(%arg0: !tt.ptr<bf16> {tt.divisibility = 16 : i32} loc("results/my_experiment/torchinductor_cache_0/op/copyq2b4jap6aqjvbv7exwa7tholimoxttv2t4zt72kddw6ybshd.py":18:0), %arg1: !tt.ptr<f32> {tt.divisibility = 16 : i32} loc("results/my_experiment/torchinductor_cache_0/op/copyq2b4jap6aqjvbv7exwa7tholimoxttv2t4zt72kddw6ybshd.py":18:0), %arg2: i32 {tt.divisibility = 16 : i32} loc("results/my_experiment/torchinductor_cache_0/op/copyq2b4jap6aqjvbv7exwa7tholimoxttv2t4zt72kddw6ybshd.py":18:0), %arg3: i32 {tt.divisibility = 16 : i32} loc("results/my_experiment/torchinductor_cache_0/op/copyq2b4jap6aqjvbv7exwa7tholimoxttv2t4zt72kddw6ybshd.py":18:0)) attributes {noinline = false} {
    %cst = arith.constant dense<2304> : tensor<8x1xi32> loc(#loc1)
    %cst_0 = arith.constant dense<64> : tensor<8x1xi32> loc(#loc1)
    %cst_1 = arith.constant dense<768> : tensor<1x64xi32> loc(#loc1)
    %cst_2 = arith.constant dense<12> : tensor<8x1xi32> loc(#loc1)
    %c8_i32 = arith.constant 8 : i32 loc(#loc1)
    %0 = tt.get_program_id x : i32 loc(#loc2)
    %1 = arith.muli %0, %c8_i32 : i32 loc(#loc3)
    %2 = tt.make_range {end = 8 : i32, start = 0 : i32} : tensor<8xi32> loc(#loc4)
    %3 = tt.expand_dims %2 {axis = 1 : i32} : tensor<8xi32> -> tensor<8x1xi32> loc(#loc5)
    %4 = tt.splat %1 : i32 -> tensor<8x1xi32> loc(#loc6)
    %5 = arith.addi %4, %3 : tensor<8x1xi32> loc(#loc6)
    %6 = tt.make_range {end = 64 : i32, start = 0 : i32} : tensor<64xi32> loc(#loc7)
    %7 = tt.expand_dims %6 {axis = 0 : i32} : tensor<64xi32> -> tensor<1x64xi32> loc(#loc8)
    %8 = arith.remsi %5, %cst_2 : tensor<8x1xi32> loc(#loc9)
    %9 = arith.divsi %5, %cst_2 : tensor<8x1xi32> loc(#loc10)
    %10 = arith.addi %7, %cst_1 : tensor<1x64xi32> loc(#loc11)
    %11 = arith.muli %8, %cst_0 : tensor<8x1xi32> loc(#loc12)
    %12 = tt.broadcast %10 : tensor<1x64xi32> -> tensor<8x64xi32> loc(#loc13)
    %13 = tt.broadcast %11 : tensor<8x1xi32> -> tensor<8x64xi32> loc(#loc13)
    %14 = arith.addi %12, %13 : tensor<8x64xi32> loc(#loc13)
    %15 = arith.muli %9, %cst : tensor<8x1xi32> loc(#loc14)
    %16 = tt.broadcast %15 : tensor<8x1xi32> -> tensor<8x64xi32> loc(#loc15)
    %17 = arith.addi %14, %16 : tensor<8x64xi32> loc(#loc15)
    %18 = tt.splat %arg0 : !tt.ptr<bf16> -> tensor<8x64x!tt.ptr<bf16>> loc(#loc16)
    %19 = tt.addptr %18, %17 : tensor<8x64x!tt.ptr<bf16>>, tensor<8x64xi32> loc(#loc16)
    %20 = tt.load %19 : tensor<8x64x!tt.ptr<bf16>> loc(#loc17)
    %21 = arith.extf %20 : tensor<8x64xbf16> to tensor<8x64xf32> loc(#loc18)
    %22 = arith.mulf %21, %21 : tensor<8x64xf32> loc(#loc19)
    %23 = "tt.reduce"(%22) <{axis = 1 : i32}> ({
    ^bb0(%arg4: f32 loc(callsite(#loc1 at #loc21)), %arg5: f32 loc(callsite(#loc1 at #loc21))):
      %27 = arith.addf %arg4, %arg5 : f32 loc(#loc30)
      tt.reduce.return %27 : f32 loc(#loc27)
    }) : (tensor<8x64xf32>) -> tensor<8xf32> loc(#loc27)
    %24 = tt.expand_dims %23 {axis = 1 : i32} : tensor<8xf32> -> tensor<8x1xf32> loc(#loc23)
    %25 = tt.splat %arg1 : !tt.ptr<f32> -> tensor<8x1x!tt.ptr<f32>> loc(#loc24)
    %26 = tt.addptr %25, %5 : tensor<8x1x!tt.ptr<f32>>, tensor<8x1xi32> loc(#loc24)
    tt.store %26, %24 : tensor<8x1x!tt.ptr<f32>> loc(#loc25)
    tt.return loc(#loc26)
  } loc(#loc)
} loc(#loc)
#loc2 = loc("results/my_experiment/torchinductor_cache_0/op/copyq2b4jap6aqjvbv7exwa7tholimoxttv2t4zt72kddw6ybshd.py":24:28)
#loc3 = loc("results/my_experiment/torchinductor_cache_0/op/copyq2b4jap6aqjvbv7exwa7tholimoxttv2t4zt72kddw6ybshd.py":24:33)
#loc4 = loc("results/my_experiment/torchinductor_cache_0/op/copyq2b4jap6aqjvbv7exwa7tholimoxttv2t4zt72kddw6ybshd.py":25:36)
#loc5 = loc("results/my_experiment/torchinductor_cache_0/op/copyq2b4jap6aqjvbv7exwa7tholimoxttv2t4zt72kddw6ybshd.py":25:44)
#loc6 = loc("results/my_experiment/torchinductor_cache_0/op/copyq2b4jap6aqjvbv7exwa7tholimoxttv2t4zt72kddw6ybshd.py":25:23)
#loc7 = loc("results/my_experiment/torchinductor_cache_0/op/copyq2b4jap6aqjvbv7exwa7tholimoxttv2t4zt72kddw6ybshd.py":27:28)
#loc8 = loc("results/my_experiment/torchinductor_cache_0/op/copyq2b4jap6aqjvbv7exwa7tholimoxttv2t4zt72kddw6ybshd.py":27:38)
#loc9 = loc("results/my_experiment/torchinductor_cache_0/op/copyq2b4jap6aqjvbv7exwa7tholimoxttv2t4zt72kddw6ybshd.py":33:19)
#loc10 = loc("results/my_experiment/torchinductor_cache_0/op/copyq2b4jap6aqjvbv7exwa7tholimoxttv2t4zt72kddw6ybshd.py":34:19)
#loc11 = loc("results/my_experiment/torchinductor_cache_0/op/copyq2b4jap6aqjvbv7exwa7tholimoxttv2t4zt72kddw6ybshd.py":36:36)
#loc12 = loc("results/my_experiment/torchinductor_cache_0/op/copyq2b4jap6aqjvbv7exwa7tholimoxttv2t4zt72kddw6ybshd.py":36:46)
#loc13 = loc("results/my_experiment/torchinductor_cache_0/op/copyq2b4jap6aqjvbv7exwa7tholimoxttv2t4zt72kddw6ybshd.py":36:43)
#loc14 = loc("results/my_experiment/torchinductor_cache_0/op/copyq2b4jap6aqjvbv7exwa7tholimoxttv2t4zt72kddw6ybshd.py":36:56)
#loc15 = loc("results/my_experiment/torchinductor_cache_0/op/copyq2b4jap6aqjvbv7exwa7tholimoxttv2t4zt72kddw6ybshd.py":36:51)
#loc16 = loc("results/my_experiment/torchinductor_cache_0/op/copyq2b4jap6aqjvbv7exwa7tholimoxttv2t4zt72kddw6ybshd.py":36:30)
#loc17 = loc("results/my_experiment/torchinductor_cache_0/op/copyq2b4jap6aqjvbv7exwa7tholimoxttv2t4zt72kddw6ybshd.py":36:61)
#loc18 = loc("results/my_experiment/torchinductor_cache_0/op/copyq2b4jap6aqjvbv7exwa7tholimoxttv2t4zt72kddw6ybshd.py":36:70)
#loc19 = loc("results/my_experiment/torchinductor_cache_0/op/copyq2b4jap6aqjvbv7exwa7tholimoxttv2t4zt72kddw6ybshd.py":38:18)
#loc20 = loc("/home/utka/proj/evs/vlm/lib/python3.12/site-packages/triton/language/standard.py":286:36)
#loc22 = loc("/home/utka/proj/evs/vlm/lib/python3.12/site-packages/triton/language/standard.py":256:15)
#loc23 = loc("results/my_experiment/torchinductor_cache_0/op/copyq2b4jap6aqjvbv7exwa7tholimoxttv2t4zt72kddw6ybshd.py":40:27)
#loc24 = loc("results/my_experiment/torchinductor_cache_0/op/copyq2b4jap6aqjvbv7exwa7tholimoxttv2t4zt72kddw6ybshd.py":41:25)
#loc25 = loc("results/my_experiment/torchinductor_cache_0/op/copyq2b4jap6aqjvbv7exwa7tholimoxttv2t4zt72kddw6ybshd.py":41:36)
#loc26 = loc("results/my_experiment/torchinductor_cache_0/op/copyq2b4jap6aqjvbv7exwa7tholimoxttv2t4zt72kddw6ybshd.py":41:4)
#loc27 = loc(callsite(#loc20 at #loc21))
#loc29 = loc(callsite(#loc22 at #loc20))
#loc30 = loc(callsite(#loc29 at #loc21))
