#loc = loc("results/my_experiment/torchinductor_cache_0/3s/c3sg2gpb3pdyenoywzsdvtinxcpgtgfewdle2u5ewpsnkitx2ubu.py":18:0)
#loc1 = loc(unknown)
#loc25 = loc("results/my_experiment/torchinductor_cache_0/3s/c3sg2gpb3pdyenoywzsdvtinxcpgtgfewdle2u5ewpsnkitx2ubu.py":44:25)
#loc32 = loc(callsite(#loc1 at #loc25))
module {
  tt.func public @triton_red_fused__to_copy_mean_pow_7(%arg0: !tt.ptr<bf16> {tt.divisibility = 16 : i32} loc("results/my_experiment/torchinductor_cache_0/3s/c3sg2gpb3pdyenoywzsdvtinxcpgtgfewdle2u5ewpsnkitx2ubu.py":18:0), %arg1: !tt.ptr<f32> {tt.divisibility = 16 : i32} loc("results/my_experiment/torchinductor_cache_0/3s/c3sg2gpb3pdyenoywzsdvtinxcpgtgfewdle2u5ewpsnkitx2ubu.py":18:0), %arg2: i32 {tt.divisibility = 16 : i32} loc("results/my_experiment/torchinductor_cache_0/3s/c3sg2gpb3pdyenoywzsdvtinxcpgtgfewdle2u5ewpsnkitx2ubu.py":18:0), %arg3: i32 {tt.divisibility = 16 : i32} loc("results/my_experiment/torchinductor_cache_0/3s/c3sg2gpb3pdyenoywzsdvtinxcpgtgfewdle2u5ewpsnkitx2ubu.py":18:0)) attributes {noinline = false} {
    %cst = arith.constant dense<0.000000e+00> : tensor<8x128xbf16> loc(#loc1)
    %cst_0 = arith.constant dense<3456> : tensor<8x1xi32> loc(#loc1)
    %cst_1 = arith.constant dense<96> : tensor<8x1xi32> loc(#loc1)
    %cst_2 = arith.constant dense<96> : tensor<1x128xi32> loc(#loc1)
    %cst_3 = arith.constant dense<0.000000e+00> : tensor<8x128xf32> loc(#loc1)
    %cst_4 = arith.constant dense<12> : tensor<8x1xi32> loc(#loc1)
    %cst_5 = arith.constant dense<6144> : tensor<8x1xi32> loc(#loc1)
    %c8_i32 = arith.constant 8 : i32 loc(#loc1)
    %0 = tt.get_program_id x : i32 loc(#loc2)
    %1 = arith.muli %0, %c8_i32 : i32 loc(#loc3)
    %2 = tt.make_range {end = 8 : i32, start = 0 : i32} : tensor<8xi32> loc(#loc4)
    %3 = tt.expand_dims %2 {axis = 1 : i32} : tensor<8xi32> -> tensor<8x1xi32> loc(#loc5)
    %4 = tt.splat %1 : i32 -> tensor<8x1xi32> loc(#loc6)
    %5 = arith.addi %4, %3 : tensor<8x1xi32> loc(#loc6)
    %6 = arith.cmpi slt, %5, %cst_5 : tensor<8x1xi32> loc(#loc7)
    %7 = tt.make_range {end = 128 : i32, start = 0 : i32} : tensor<128xi32> loc(#loc8)
    %8 = tt.expand_dims %7 {axis = 0 : i32} : tensor<128xi32> -> tensor<1x128xi32> loc(#loc9)
    %9 = arith.remsi %5, %cst_4 : tensor<8x1xi32> loc(#loc10)
    %10 = arith.divsi %5, %cst_4 : tensor<8x1xi32> loc(#loc11)
    %11 = arith.cmpi slt, %8, %cst_2 : tensor<1x128xi32> loc(#loc12)
    %12 = arith.muli %9, %cst_1 : tensor<8x1xi32> loc(#loc13)
    %13 = tt.broadcast %8 : tensor<1x128xi32> -> tensor<8x128xi32> loc(#loc14)
    %14 = tt.broadcast %12 : tensor<8x1xi32> -> tensor<8x128xi32> loc(#loc14)
    %15 = arith.addi %13, %14 : tensor<8x128xi32> loc(#loc14)
    %16 = arith.muli %10, %cst_0 : tensor<8x1xi32> loc(#loc15)
    %17 = tt.broadcast %16 : tensor<8x1xi32> -> tensor<8x128xi32> loc(#loc16)
    %18 = arith.addi %15, %17 : tensor<8x128xi32> loc(#loc16)
    %19 = tt.splat %arg0 : !tt.ptr<bf16> -> tensor<8x128x!tt.ptr<bf16>> loc(#loc17)
    %20 = tt.addptr %19, %18 : tensor<8x128x!tt.ptr<bf16>>, tensor<8x128xi32> loc(#loc17)
    %21 = tt.broadcast %6 : tensor<8x1xi1> -> tensor<8x128xi1> loc(#loc18)
    %22 = tt.broadcast %11 : tensor<1x128xi1> -> tensor<8x128xi1> loc(#loc18)
    %23 = arith.andi %21, %22 : tensor<8x128xi1> loc(#loc18)
    %24 = tt.load %20, %23, %cst evictionPolicy = evict_first : tensor<8x128x!tt.ptr<bf16>> loc(#loc19)
    %25 = arith.extf %24 : tensor<8x128xbf16> to tensor<8x128xf32> loc(#loc20)
    %26 = arith.mulf %25, %25 : tensor<8x128xf32> loc(#loc21)
    %27 = arith.addf %26, %cst_3 : tensor<8x128xf32> loc(#loc22)
    %28 = arith.select %23, %27, %cst_3 : tensor<8x128xi1>, tensor<8x128xf32> loc(#loc23)
    %29 = "tt.reduce"(%28) <{axis = 1 : i32}> ({
    ^bb0(%arg4: f32 loc(callsite(#loc1 at #loc25)), %arg5: f32 loc(callsite(#loc1 at #loc25))):
      %33 = arith.addf %arg4, %arg5 : f32 loc(#loc34)
      tt.reduce.return %33 : f32 loc(#loc31)
    }) : (tensor<8x128xf32>) -> tensor<8xf32> loc(#loc31)
    %30 = tt.expand_dims %29 {axis = 1 : i32} : tensor<8xf32> -> tensor<8x1xf32> loc(#loc27)
    %31 = tt.splat %arg1 : !tt.ptr<f32> -> tensor<8x1x!tt.ptr<f32>> loc(#loc28)
    %32 = tt.addptr %31, %5 : tensor<8x1x!tt.ptr<f32>>, tensor<8x1xi32> loc(#loc28)
    tt.store %32, %30, %6 : tensor<8x1x!tt.ptr<f32>> loc(#loc29)
    tt.return loc(#loc30)
  } loc(#loc)
} loc(#loc)
#loc2 = loc("results/my_experiment/torchinductor_cache_0/3s/c3sg2gpb3pdyenoywzsdvtinxcpgtgfewdle2u5ewpsnkitx2ubu.py":23:28)
#loc3 = loc("results/my_experiment/torchinductor_cache_0/3s/c3sg2gpb3pdyenoywzsdvtinxcpgtgfewdle2u5ewpsnkitx2ubu.py":23:33)
#loc4 = loc("results/my_experiment/torchinductor_cache_0/3s/c3sg2gpb3pdyenoywzsdvtinxcpgtgfewdle2u5ewpsnkitx2ubu.py":24:36)
#loc5 = loc("results/my_experiment/torchinductor_cache_0/3s/c3sg2gpb3pdyenoywzsdvtinxcpgtgfewdle2u5ewpsnkitx2ubu.py":24:44)
#loc6 = loc("results/my_experiment/torchinductor_cache_0/3s/c3sg2gpb3pdyenoywzsdvtinxcpgtgfewdle2u5ewpsnkitx2ubu.py":24:23)
#loc7 = loc("results/my_experiment/torchinductor_cache_0/3s/c3sg2gpb3pdyenoywzsdvtinxcpgtgfewdle2u5ewpsnkitx2ubu.py":25:21)
#loc8 = loc("results/my_experiment/torchinductor_cache_0/3s/c3sg2gpb3pdyenoywzsdvtinxcpgtgfewdle2u5ewpsnkitx2ubu.py":26:27)
#loc9 = loc("results/my_experiment/torchinductor_cache_0/3s/c3sg2gpb3pdyenoywzsdvtinxcpgtgfewdle2u5ewpsnkitx2ubu.py":26:37)
#loc10 = loc("results/my_experiment/torchinductor_cache_0/3s/c3sg2gpb3pdyenoywzsdvtinxcpgtgfewdle2u5ewpsnkitx2ubu.py":28:19)
#loc11 = loc("results/my_experiment/torchinductor_cache_0/3s/c3sg2gpb3pdyenoywzsdvtinxcpgtgfewdle2u5ewpsnkitx2ubu.py":29:19)
#loc12 = loc("results/my_experiment/torchinductor_cache_0/3s/c3sg2gpb3pdyenoywzsdvtinxcpgtgfewdle2u5ewpsnkitx2ubu.py":34:29)
#loc13 = loc("results/my_experiment/torchinductor_cache_0/3s/c3sg2gpb3pdyenoywzsdvtinxcpgtgfewdle2u5ewpsnkitx2ubu.py":38:44)
#loc14 = loc("results/my_experiment/torchinductor_cache_0/3s/c3sg2gpb3pdyenoywzsdvtinxcpgtgfewdle2u5ewpsnkitx2ubu.py":38:41)
#loc15 = loc("results/my_experiment/torchinductor_cache_0/3s/c3sg2gpb3pdyenoywzsdvtinxcpgtgfewdle2u5ewpsnkitx2ubu.py":38:54)
#loc16 = loc("results/my_experiment/torchinductor_cache_0/3s/c3sg2gpb3pdyenoywzsdvtinxcpgtgfewdle2u5ewpsnkitx2ubu.py":38:49)
#loc17 = loc("results/my_experiment/torchinductor_cache_0/3s/c3sg2gpb3pdyenoywzsdvtinxcpgtgfewdle2u5ewpsnkitx2ubu.py":38:34)
#loc18 = loc("results/my_experiment/torchinductor_cache_0/3s/c3sg2gpb3pdyenoywzsdvtinxcpgtgfewdle2u5ewpsnkitx2ubu.py":38:67)
#loc19 = loc("results/my_experiment/torchinductor_cache_0/3s/c3sg2gpb3pdyenoywzsdvtinxcpgtgfewdle2u5ewpsnkitx2ubu.py":38:59)
#loc20 = loc("results/my_experiment/torchinductor_cache_0/3s/c3sg2gpb3pdyenoywzsdvtinxcpgtgfewdle2u5ewpsnkitx2ubu.py":38:121)
#loc21 = loc("results/my_experiment/torchinductor_cache_0/3s/c3sg2gpb3pdyenoywzsdvtinxcpgtgfewdle2u5ewpsnkitx2ubu.py":40:22)
#loc22 = loc("results/my_experiment/torchinductor_cache_0/3s/c3sg2gpb3pdyenoywzsdvtinxcpgtgfewdle2u5ewpsnkitx2ubu.py":42:23)
#loc23 = loc("results/my_experiment/torchinductor_cache_0/3s/c3sg2gpb3pdyenoywzsdvtinxcpgtgfewdle2u5ewpsnkitx2ubu.py":43:48)
#loc24 = loc("/home/utka/proj/evs/vlm/lib/python3.12/site-packages/triton/language/standard.py":286:36)
#loc26 = loc("/home/utka/proj/evs/vlm/lib/python3.12/site-packages/triton/language/standard.py":256:15)
#loc27 = loc("results/my_experiment/torchinductor_cache_0/3s/c3sg2gpb3pdyenoywzsdvtinxcpgtgfewdle2u5ewpsnkitx2ubu.py":44:28)
#loc28 = loc("results/my_experiment/torchinductor_cache_0/3s/c3sg2gpb3pdyenoywzsdvtinxcpgtgfewdle2u5ewpsnkitx2ubu.py":45:25)
#loc29 = loc("results/my_experiment/torchinductor_cache_0/3s/c3sg2gpb3pdyenoywzsdvtinxcpgtgfewdle2u5ewpsnkitx2ubu.py":45:36)
#loc30 = loc("results/my_experiment/torchinductor_cache_0/3s/c3sg2gpb3pdyenoywzsdvtinxcpgtgfewdle2u5ewpsnkitx2ubu.py":45:4)
#loc31 = loc(callsite(#loc24 at #loc25))
#loc33 = loc(callsite(#loc26 at #loc24))
#loc34 = loc(callsite(#loc33 at #loc25))
